digital_deal/model/allmodel4.pth (torch, 198523 bytes, 14 tensors)

weight f4 [16, 3, 5, 5]
0	0x3cb1698e	0.021656778
1	0x3d8bec0d	0.068321325
2	0xbce80cdb	-0.028326442
3	0x3df7f49f	0.12107205
4	0xbbbd766a	-0.0057819383
5	0xbd3bb1f2	-0.045824
6	0xbd903f5c	-0.07043335
7	0x3cb75935	0.022381404
8	0xbc884d43	-0.016638404
9	0x3c31f999	0.010862731
10	0xbde276a6	-0.11057787
11	0x3d39361d	0.045217622
12	0x3ca9bda0	0.020720303
13	0xbcc70cf8	-0.024298176
14	0x3da1325c	0.078709334
15	0x3d75bed4	0.05999644
16	0xbda4b169	-0.08041651
17	0x3dd32ccd	0.103112794
18	0xbd5267c5	-0.051368494
19	0x3d249c58	0.040188164
20	0xbc84b2f8	-0.01619862
21	0xbd5ad060	-0.053421378
22	0xbd89f640	-0.067364216
23	0xbd81d42d	-0.063392974
24	0x3dd7b465	0.105324544
25	0x3dcea0b1	0.10089243
26	0xbbd6ce28	-0.0065553375
27	0x3ddfecb4	0.109338194
28	0xbd8d7a34	-0.06908074
29	0x3e027055	0.12738164
30	0x3c75a798	0.014993571
31	0xbe17d7aa	-0.14828363
32	0xbdd08344	-0.10181287
33	0x3dd241f0	0.10266483
34	0xbda173a8	-0.07883388
35	0xbdc8f136	-0.09811632
36	0xbdf37243	-0.11887028
37	0x3d5f5bf1	0.05453104
38	0xbdb53299	-0.08847541
39	0x3c79e29c	0.015251782
40	0xbdcbb93e	-0.099474415
41	0xbe16c80b	-0.14724748
42	0x3cfde3af	0.030992357
43	0xbd39f958	-0.04540381
44	0xbd4d5b35	-0.05013581
45	0xbe0d71ca	-0.13812938
46	0x3c19d7e8	0.009389855
47	0xbcf3cb2c	-0.029759966
48	0xbda28fbd	-0.07937572
49	0x3dd2d998	0.10295409
50	0x3de94949	0.11390931
51	0xbddf0efe	-0.108915314
52	0xbdbd0a01	-0.09230424
53	0xbd3a3367	-0.045459177
54	0x3e09bdb6	0.13451275
55	0x3dc6bbc2	0.09703781
56	0x3da7ed49	0.081995554
57	0xbd9dadd8	-0.07699174
58	0x3dd9ed4f	0.10640966
59	0x3c86cea3	0.016455954
60	0x3d94f080	0.07272434
61	0xbdc7f965	-0.09764365
62	0xbd94b188	-0.07260424
63	0xbd0d9002	-0.034561165
64	0x3d554049	0.05206326
65	0x3dd5d802	0.10441591
66	0xbd387980	-0.045037746
67	0x3dcb8b67	0.09938698
68	0xbc87ab4b	-0.016561171
69	0x3e051993	0.12998037
70	0xbcb22982	-0.021748308
71	0xbd0db15b	-0.034592967
72	0xbdb053aa	-0.08609708
73	0x3ddc7946	0.107653186
74	0xbd2a7dfb	-0.04162405
75	0x3d095de2	0.0335368
76	0x3de2fc9c	0.11083338
77	0xbd7c03a7	-0.06152692
78	0xbdadea20	-0.084919214
79	0xbdcfbca1	-0.101434
80	0xbdb960c1	-0.090516575
81	0xbb5ef2f0	-0.0034019314
82	0x3d3ef560	0.046620727
83	0xbd761c59	-0.06008563
84	0xbdb3a9d7	-0.08772629
85	0xbd804e4f	-0.06264936
86	0xbd832b9c	-0.06404802
87	0xbd4551fa	-0.048173882
88	0x3d8cb461	0.06870342
89	0xb9f0b316	-0.00045909797
90	0x3d9ad522	0.07560183
91	0xbdae458b	-0.08509358
92	0x3dd3cf2b	0.103422485
93	0x3cbe3734	0.023219682
94	0xbd3d678a	-0.04624132
95	0x3dcdc0be	0.10046528
96	0xbcb82186	-0.022476923
97	0x3d6773bc	0.056506857
98	0x3dd20911	0.102556355
99	0x3ca125b2	0.019671295
100	0xbde75382	-0.11295225
101	0xbdbf5566	-0.0934246
102	0xbdc7d7cc	-0.09757957
103	0x3d9c9e64	0.07647398
104	0x3c06859d	0.008210567
105	0xbd0bbce5	-0.03411569
106	0xbd760bda	-0.060069896
107	0xbc5cfd50	-0.013488129
108	0x3ca68042	0.02032483
109	0x3c2960d2	0.010338025
110	0x3aeb51e6	0.0017953485
111	0xbd22dabd	-0.039759386
112	0xbda1f3d4	-0.07907835
113	0xbc8acd09	-0.016943472
114	0xbd4809cf	-0.04883748
115	0xbb2938f2	-0.0025821296
116	0x3d86e56d	0.06586728
117	0x3c3d2b06	0.011545902
118	0xbd19cd61	-0.03754938
119	0x3de7680c	0.11299142
120	0xbc86ee3f	-0.016471026
121	0xbd8c338d	-0.0684577
122	0xbcd72bfd	-0.026266092
123	0x3d323d97	0.043515768
124	0x3d5a27d3	0.053260636
125	0xbbf87c14	-0.0075831506
126	0x3d034369	0.03204671
127	0x3de761fb	0.11297985
128	0xbdbd564a	-0.09244974
129	0x3dcb82b5	0.0993704
130	0x3c7906fb	0.015199418
131	0x3da3687e	0.07978915
132	0xbd2080b5	-0.039185245
133	0xbdd7fce5	-0.10546283
134	0xbdd24887	-0.1026774
135	0xbde92ea6	-0.113858506
136	0x3db795d4	0.08964124
137	0xbda090b1	-0.07840098
138	0x3d09e6ac	0.03366725
139	0xbd3689ec	-0.044565126
140	0xbdcdfbd5	-0.10057799
141	0x3d9081c7	0.07056003
142	0x3d982306	0.07428555
143	0xbd235316	-0.03987416
144	0xbd642870	-0.055702627
145	0x3bf65c1b	0.007518304
146	0xbd62d88f	-0.055382308
147	0x3b312a1c	0.0027033156
148	0xbde3bd2f	-0.11120068
149	0xbc834ef5	-0.01602886
150	0xbd806f72	-0.062712565
151	0x3ceba12d	0.028763378
152	0xbe18b461	-0.14912559
153	0xbd9b98f7	-0.07597535
154	0x3d10ed55	0.035382587
155	0x3d732c08	0.059368163
156	0xbce0312b	-0.027367195
157	0xbe315d8f	-0.17320846
158	0xbdc771db	-0.09738513
159	0x3d5170a8	0.051132828
160	0xbd0587a1	-0.03260005
161	0x3d12dd6f	0.035855707
162	0xbddbdbbb	-0.1073527
163	0x3d99e25a	0.07513876
164	0xbd9856ca	-0.07438429
165	0x3dc696bc	0.09696719
166	0x3dde927f	0.10867786
167	0xbc0f94de	-0.00876352
168	0x3db7d647	0.08976417
169	0x3dcdb6a4	0.100446016
170	0x3d5f6180	0.054536343
171	0xbd125ddc	-0.035734043
172	0x3cefdabe	0.02927911
173	0x3d4c16a5	0.049826283
174	0x3d9b1550	0.075724244
175	0xbde180a9	-0.11010868
176	0xbd67b73b	-0.056571227
177	0xbdc1264e	-0.09431134
178	0xbd84dfa5	-0.06487969
179	0xbb0e7d24	-0.002174207
180	0xbcb2a22c	-0.021805845
181	0x3b2c8bbd	0.0026328408
182	0xbe228a64	-0.15873104
183	0xbdab3661	-0.08359981
184	0xbd0b6ffe	-0.03404235
185	0xbd95196b	-0.07280239
186	0x3d7ca9d3	0.061685394
187	0xbd92698c	-0.07149038
188	0xbda51a4b	-0.080616556
189	0xbc42bcf9	-0.011885875
190	0x3dc3b5b7	0.09556144
191	0xbdaf1478	-0.08548826
192	0xbddc9d91	-0.10772241
193	0x3ded2ce3	0.11580827
194	0xbd1fd2b4	-0.0390193
195	0xbdaed788	-0.08537203
196	0x3c270368	0.010193683
197	0x3d3f9ed3	0.046782326
198	0x3d9f36da	0.07774134
199	0x3e07186b	0.13192908
200	0x3df25165	0.11831931
201	0x3d5ff76b	0.054679316
202	0xbda2f757	-0.079573326
203	0x3c7c0f57	0.015384517
204	0xbc7ccaef	-0.0154292425
205	0x3dacec1a	0.0844347
206	0xbd785531	-0.06062812
207	0x3d88378c	0.0665122
208	0x3d01cb6a	0.03168813
209	0xbd209059	-0.03920016
210	0x3d6a440f	0.057193812
211	0x3ca02e9b	0.019553473
212	0x3bc5058d	0.0060126246
213	0xbce80696	-0.028323453
214	0x3cf63946	0.030056607
215	0xbbc878f7	-0.0061179358
216	0x3c8ceaa6	0.017201733
217	0x3e0bd59d	0.13655706
218	0xbd9b9826	-0.075973794
219	0xbd16389b	-0.036675077
220	0x3da3e75a	0.08003111
221	0x3d8b5225	0.06802777
222	0xbb964bca	-0.0045866715
223	0x3d9579ba	0.07298608
224	0x3d3889c1	0.045053247
225	0xbd241aa2	-0.04006446
226	0x3da272ac	0.07932028
227	0x3dc69780	0.09696865
228	0xbd7efc85	-0.06225254
229	0xbe148701	-0.14504625
230	0xbc9c24c3	-0.019060498
231	0x3dc3af6a	0.09554942
232	0x3dae39ed	0.08507142
233	0xbbf73474	-0.0075440947
234	0xbd183723	-0.037161957
235	0xbbfd41b6	-0.0077287806
236	0x3b9f48e4	0.004860984
237	0xbcb0f63c	-0.021601789
238	0x3cc21a30	0.023694128
239	0xbe44fef9	-0.1923789
240	0xbcd00730	-0.025394052
241	0xbb944d7f	-0.00452584
242	0x3d0cffee	0.03442376
243	0xbe313563	-0.17305522
244	0xbddbd481	-0.10733891
245	0x3d3bb501	0.045826916
246	0x3df60cbd	0.120141484
247	0x3d8155a1	0.063151605
248	0xbc149ed8	-0.009071074
249	0xbddcef42	-0.10787822
250	0x3e0dad6d	0.13835688
251	0x3e03d617	0.12874638
252	0x3cb62b6d	0.022237504
253	0xbe017c2d	-0.12645026
254	0xbe4a2c71	-0.19743516
255	0x3d232516	0.03983029

bias f4 [16]
0	0xbbf40277	-0.007446583
1	0x3d3e9e46	0.04653766
2	0xbe00b53c	-0.12569135
3	0x3d5357a7	0.051597264
4	0x3c6d8760	0.014497608
5	0xbd5d6cc4	-0.054058805
6	0xba4f4e93	-0.0007908132
7	0xbdc37f5f	-0.095457785
8	0xbd4aaf73	-0.049483728
9	0x3d81653e	0.063181385
10	0xbe07a2cb	-0.13245694
11	0x3dabeb64	0.083945066
12	0xbd5de73f	-0.05417561
13	0x3debf748	0.115217745
14	0xbd9f540d	-0.07779703
15	0x3da4a46c	0.080391735

weight f4 [32, 16, 5, 5]
0	0xbcd20d16	-0.025641005
1	0x3c782166	0.015144682
2	0x3bce5594	0.006296823
3	0xbbde3ab2	-0.0067818994
4	0x3b9d4f5a	0.004800719
5	0x3ba82bf4	0.0051321927
6	0x3d0200c7	0.031739023
7	0xbd153a98	-0.036432832
8	0xbc98b919	-0.018642949
9	0x3b32ed47	0.0027302073
10	0x3a28846b	0.0006428423
11	0xbc0782a5	-0.008270894
12	0xbd0d0ee9	-0.034438048
13	0x3d0e20e4	0.034699336
14	0xbd4ae5d1	-0.049535576
15	0x3c680858	0.014162146
16	0xbb6c39f6	-0.003604529
17	0xbce9742d	-0.02849778
18	0xbb177b96	-0.0023114434
19	0xbcbad958	-0.022808716
20	0xbd5ea96c	-0.054360792
21	0xbd112898	-0.035439104
22	0xbcb7f5d6	-0.02245609
23	0xbd0f0aa9	-0.034922276
24	0xbd06f61f	-0.032949563
25	0xbc0fc3ad	-0.00877468
26	0xbc894881	-0.016758205
27	0xbc223827	-0.009901083
28	0xbd19853b	-0.037480574
29	0x3d1a1c58	0.037624687
30	0xbc2a3943	-0.010389629
31	0xbd1eaa0c	-0.038736388
32	0x3cef62c9	0.02922191
33	0xbc811916	-0.015759032
34	0x3d2b329c	0.04179631
35	0x3cbe2c53	0.023214495
36	0x3ce384ea	0.02777334
37	0x3c2fd3ec	0.010731678
38	0xbc8643cc	-0.01638975
39	0x3d0b469e	0.034002893
40	0x3ce507ca	0.027957816
41	0x3d40a51a	0.047032453
42	0xbcbfd194	-0.023415364
43	0x3d1134e4	0.03545083
44	0xbca705a6	-0.020388436
45	0xbd43d419	-0.047809694
46	0x3d2f69f1	0.042825643
47	0xbd300d76	-0.042981587
48	0xb9026f34	-0.00012439193
49	0x3c8d8db7	0.017279489
50	0x3ccb8f10	0.024848491
51	0x3cb9b8e6	0.022671174
52	0xbc8e88b9	-0.017399179
53	0xbad22a9d	-0.0016034428
54	0x3d084f55	0.033278782
55	0x3c11ee55	0.00890692
56	0x3d4f3ccc	0.05059509
57	0x3d8bb878	0.06822294
58	0x3cf4838e	0.029847886
59	0xbb0f879d	-0.00219009
60	0x3d5ca1a1	0.05386508
61	0x3da4a4a3	0.080392145
62	0x3b3bb006	0.0028638854
63	0x3d5a7b26	0.0533401
64	0xbcf0a291	-0.029374393
65	0xbb426e07	-0.0029667632
66	0x3d8199de	0.06328176
67	0x3d341ac5	0.043970842
68	0x3c1bdcad	0.009513062
69	0xbd21eab0	-0.039530456
70	0x3bc98243	0.0061495616
71	0x3d2b7c42	0.04186655
72	0x3cbebad1	0.02328244
73	0x3b848a51	0.004044809
74	0xbd5996fe	-0.053122513
75	0xbb03e693	-0.0020126447
76	0x3d8847d2	0.06654324
77	0xbd3ebda8	-0.04656759
78	0xbc4d76a7	-0.012540496
79	0xbcf36dbd	-0.029715413
80	0x3d70d1d3	0.058793854
81	0xbb97d355	-0.004633347
82	0x3d0d969b	0.034567457
83	0x3d23fed5	0.04003795
84	0xbd15aaa2	-0.03653968
85	0x3c930688	0.01794745
86	0x3d30c41b	0.04315577
87	0xbc9d20b5	-0.019180635
88	0x3d75506c	0.05989115
89	0x3cfe1bae	0.031019058
90	0x3bc025b0	0.0058638677
91	0xbd2c967e	-0.042135708
92	0xbd2d27e7	-0.042274382
93	0x3cb2323c	0.02175247
94	0xbce34ca8	-0.027746513
95	0x3c3f1750	0.011663273
96	0xbcac9a13	-0.021069562
97	0xbd3d48b6	-0.04621192
98	0xbcecadbf	-0.028891442
99	0x3c629d2a	0.013831416
100	0x3ae8f02e	0.0017771774
101	0x3b4e3dec	0.0031470014
102	0xbcb86708	-0.022510067
103	0xbce472b4	-0.027886726
104	0xbd263a26	-0.0405828
105	0x3aa19cf5	0.0012330102
106	0x3c6145a9	0.013749518
107	0xbd1eb360	-0.038745284
108	0x3ba7746c	0.005110314
109	0xbd07e2ca	-0.033175267
110	0x3c3657e5	0.011129354
111	0x3c6da069	0.014503577
112	0xbc6cd7e5	-0.01445577
113	0xbcb93b35	-0.02261124
114	0xbb01f08d	-0.0019827217
115	0x3d17ace1	0.037030105
116	0xbc8ccda2	-0.017187897
117	0x3c3afb63	0.011412474
118	0xbd31c767	-0.043403056
119	0x3c05b77d	0.008161423
120	0x3cef6ee0	0.029227674
121	0x3b04aff4	0.0020246478
122	0xbd58fab2	-0.052973457
123	0x3d0987a3	0.03357662
124	0xbce8e5ea	-0.028429944
125	0xbd09d259	-0.03364787
126	0xbcc95632	-0.024577234
127	0x3d1afed8	0.037840694
128	0xbd5a7c36	-0.053341113
129	0xbb3c77c6	-0.0028757914
130	0x3d1bfdad	0.03808372
131	0xbd29e119	-0.041474435
132	0xbd34a266	-0.044100188
133	0x3ba708ef	0.0050975005
134	0x3a9418e7	0.0011298925
135	0xbcebbfcd	-0.028777981
136	0xbcd32a24	-0.02577693
137	0x3d038c6d	0.032116342
138	0x3d2dd713	0.04244144
139	0xbad2fc8a	-0.0016096991
140	0x3bccd716	0.006251226
141	0x3d4fe55a	0.050755836
142	0x3d94d284	0.07266715
143	0x3d032f41	0.032027487
144	0x3d35a917	0.04435071
145	0xbc0a0586	-0.008424168
146	0x3d98fafb	0.07469746
147	0x3d860c02	0.06545259
148	0x3d16b5c6	0.036794446
149	0x3d9b0b59	0.07570524
150	0x3d259358	0.04042372
151	0x3ccfe92d	0.025379742
152	0xbc5645f1	-0.013078199
153	0x3bbecd77	0.005822833
154	0xbd6cae42	-0.057783373
155	0x3d1cf613	0.038320612
156	0x3be057c7	0.0068464014
157	0x3c6d2929	0.014475145
158	0x3ce90f71	0.028449746
159	0x3bb02802	0.005375863
160	0x3d08ec12	0.03342826
161	0xbc3a9508	-0.011388071
162	0xbd0ac55c	-0.033879623
163	0xbc741dd8	-0.014899693
164	0xbcc418bf	-0.023937581
165	0x3c8cf612	0.01720718
166	0xbd347e3a	-0.04406569
167	0x3c6be986	0.014398938
168	0x3b18f9df	0.0023342294
169	0xbd80979e	-0.06278919
170	0x3cc77275	0.02434657
171	0x3c8f571c	0.017497592
172	0xbd23e9a8	-0.040017754
173	0x3d5d6d21	0.05405915
174	0xbd0353cb	-0.032062333
175	0x3d4f7c39	0.050655577
176	0x3d32d6cb	0.043661874
177	0xbd170f91	-0.03688008
178	0xbd2a42c6	-0.041567586
179	0xbb32c485	-0.002727778
180	0xbc7a5005	-0.015277867
181	0x3ba77e91	0.0051115234
182	0x3d883827	0.06651335
183	0xbcb5dbe2	-0.022199575
184	0x3bc86573	0.0061156093
185	0x3d2c5892	0.042076655
186	0x3ce17d84	0.02752567
187	0x3c87b938	0.016567811
188	0x3ce0c5f1	0.027438136
189	0xbc14b03f	-0.0090752235
190	0x3d59f945	0.053216238
191	0xbb577cba	-0.003288074
192	0xbc93e728	-0.01805456
193	0xbc15f4ad	-0.0091525735
194	0xbbff440b	-0.007790094
195	0x3d021a1a	0.031763174
196	0x3d2f199b	0.04274903
197	0xbc8d340c	-0.017236732
198	0xbc20b986	-0.009809857
199	0x3d48a1ad	0.04898231
200	0x3d3d3a83	0.04619838
201	0xbcd22a62	-0.025654975
202	0xbd3939f7	-0.045221295
203	0xbc8a9f7a	-0.016921747
204	0xbc90fac0	-0.017697692
205	0xbc05b1f1	-0.0081601
206	0xbc0b95af	-0.008519574
207	0x3b55da00	0.0032631159
208	0xbca967ff	-0.020679472
209	0x3d6742e3	0.056460273
210	0x3cb72e79	0.022361027
211	0x3cc14c78	0.023596033
212	0x3c4d48d5	0.012529572
213	0xbd073b07	-0.033015277
214	0xbb54525c	-0.0032397723
215	0x3c6175c0	0.013760984
216	0xbc80131b	-0.01563411
217	0x3cf8f0c6	0.030388247
218	0x3d27f47d	0.041004647
219	0xbcfda304	-0.030961521
220	0xbbe36755	-0.0069398084
221	0x3c8f3d11	0.017485173
222	0x3c5f183f	0.013616621
223	0x3d5969d5	0.053079445
224	0x3d154ae4	0.036448374
225	0x3b6fa5eb	0.00365674
226	0xbc25b6c6	-0.010114377
227	0x3b37a755	0.0028023322
228	0xbd0bf8dc	-0.034172878
229	0xbccefd76	-0.025267344
230	0x3d967c86	0.0734797
231	0x3b5d80e3	0.0033798746
232	0x3bc859e8	0.0061142333
233	0xbc67e1f5	-0.014152993
234	0xbd5488c3	-0.05188824
235	0x3cce7afb	0.025205126
236	0x3c91ff61	0.01782197
237	0xbc51f3f9	-0.012814515
238	0xbc31e325	-0.010857378
239	0xbad9c908	-0.0016615698
240	0x3d1c5a94	0.03817232
241	0x3cdd942a	0.02704819
242	0xbd5da844	-0.05411555
243	0x3c49579d	0.012288955
244	0x3ba1f0de	0.0049420437
245	0xbc24ff3c	-0.010070618
246	0xbd51ed0f	-0.051251467
247	0xbbc26223	-0.005932109
248	0xbd2e92cb	-0.04262046
249	0xba82a0de	-0.0009966155
250	0xbda65841	-0.08122302
251	0xbd5f3166	-0.05449047
252	0x3b4c5276	0.003117708
253	0xbcb403c3	-0.02197445
254	0xbce2ac14	-0.027669944
255	0xbd1d2ce7	-0.0383729

bias f4 [32]
0	0xbd3b8893	-0.045784544
1	0xbc28ed21	-0.010310442
2	0xbcf187db	-0.029483726
3	0x3bf28944	0.0074016172
4	0x3cc0c5fc	0.023531906
5	0xbc72ca21	-0.014818699
6	0xbd12c28e	-0.035830073
7	0x3d1487e5	0.03626241
8	0xbccba3f8	-0.02485846
9	0xbd508c28	-0.050914913
10	0x3c25495d	0.010088292
11	0x3c612d73	0.013743746
12	0x3d2257e6	0.039634608
13	0x3d3c2988	0.045938045
14	0x3d2ad801	0.041709904
15	0x3b73cf82	0.0037202542
16	0x3b19e2dd	0.0023481168
17	0xb9fe26fc	-0.000484757
18	0x3a430bc4	0.0007440413
19	0x3b0f0052	0.002182026
20	0x3d2f00de	0.042725436
21	0x3d4bba22	0.049738057
22	0x3c282e9e	0.010265021
23	0x3c4a76ed	0.012357456
24	0x3c776160	0.0150989
25	0x3ca9645e	0.020677742
26	0x3d2c12d7	0.042010155
27	0xbd05d006	-0.03266909
28	0x3bd3d760	0.0064648837
29	0x3c8a5e21	0.016890587
30	0x3cf2fa67	0.029660417
31	0xbcacf8b8	-0.021114692

weight f4 [16, 16, 3, 3]
0	0x3cec07ee	0.028812375
1	0xbd7a9d7b	-0.06118534
2	0x3d08523e	0.033281557
3	0x3d86c3bd	0.06580303
4	0xbd2cff4d	-0.04223566
5	0xbcc86496	-0.024462026
6	0xbd19a28d	-0.037508536
7	0x3da82dd5	0.08211867
8	0x3d8beb25	0.0683196
9	0x3d484c50	0.048900902
10	0xbd114dea	-0.035474695
11	0x3d2829e7	0.041055586
12	0xbd39d1e2	-0.045366175
13	0xbc8f9346	-0.01752628
14	0xbd3b96cc	-0.045798108
15	0x3d44727c	0.047960743
16	0x3d134c13	0.035961222
17	0x3d495df5	0.04916187
18	0xbd5a4165	-0.05328502
19	0x3ccf830e	0.025331046
20	0x3d9c30bf	0.07626485
21	0xbd4dfa67	-0.05028763
22	0x3ccbe24e	0.024888184
23	0xbd7d05a8	-0.061772972
24	0x3d80fed5	0.06298605
25	0xbc5477b8	-0.012967996
26	0x3d9cf2c4	0.07663491
27	0xbcb664a3	-0.022264784
28	0x3db9495c	0.09047195
29	0xbd720852	-0.059089966
30	0x3d9aec44	0.07564595
31	0x3d7b5460	0.061359763
32	0x3d2deaaf	0.04246014
33	0x3c6220d3	0.013801771
34	0x3b1a8e9b	0.0023583535
35	0xbc95ab42	-0.018270139
36	0xbb210a97	-0.0024572962
37	0xbd4f45ab	-0.05060355
38	0xb9cc4a55	-0.00038965294
39	0xbd97a4d9	-0.07404489
40	0xba03f2bc	-0.00050334237
41	0x3bb4daa0	0.005519226
42	0xbd2550ec	-0.040360376
43	0xbdadafcc	-0.08480796
44	0x3d8692f4	0.06570998
45	0xbd7a6505	-0.061131496
46	0x3da20dd8	0.07912797
47	0xbd9bb1a6	-0.07602243
48	0xbb11069e	-0.0022129188
49	0xbd96988f	-0.07353317
50	0xbdaf2fd6	-0.08554046
51	0x3d87f3c8	0.066382945
52	0xbdb46335	-0.08807985
53	0x3b99418c	0.0046770032
54	0xbd17e014	-0.037078932
55	0x3db49154	0.08816782
56	0xbd36b459	-0.044605587
57	0xbd61f109	-0.05516151
58	0x3d0c5dc8	0.034269124
59	0xbd8c21eb	-0.06842407
60	0xbd11b949	-0.035577092
61	0xbd9dc06a	-0.07702716
62	0x3c2098c6	0.009802049
63	0xbd5ddbfe	-0.05416488
64	0xbd3c154f	-0.04591876
65	0x3cb70be9	0.022344546
66	0xbd9fa91b	-0.07795926
67	0xbd097bd1	-0.033565346
68	0x3d91c2ac	0.07117209
69	0xbc02fcb6	-0.007994821
70	0x3d1a1af6	0.03762337
71	0x3b8362c2	0.0040095756
72	0x3d7c4c66	0.061596297
73	0xbd5f9100	-0.054581642
74	0x3bd4ddad	0.0064961524
75	0x3d7bdd49	0.06149033
76	0x3da1ca9f	0.07899975
77	0xbd5d137a	-0.053973652
78	0x3d81bebb	0.06335207
79	0xbd6fa0a9	-0.058502827
80	0xbcaa6b77	-0.020803196
81	0x3d9ed268	0.077549756
82	0x3c83444b	0.016023776
83	0xbd1d0a7d	-0.03834008
84	0x3d608c47	0.05482128
85	0x3d1d4fb1	0.038406078
86	0x3dbacaef	0.09120738
87	0x3da8fbb4	0.082511336
88	0x3d3a5cb1	0.045498554
89	0xbcddd9c8	-0.027081385
90	0xbd938ff8	-0.07205194
91	0x3d21a1e2	0.039461024
92	0x3d9ec498	0.07752341
93	0x3d9acdd7	0.07558792
94	0x3d5ab7dd	0.053398002
95	0x3d71b7f5	0.059013326
96	0x3d801303	0.06253626
97	0x3ca0278e	0.019550111
98	0xbd869e77	-0.065731935
99	0x3cf31ead	0.029677713
100	0xbc1bd343	-0.009510818
101	0xbc5af467	-0.013363934
102	0xbd2b05e0	-0.04175365
103	0x3d74bda1	0.059751157
104	0xbd42efeb	-0.047592085
105	0x3d5a8340	0.053347826
106	0x3d7ef225	0.062242646
107	0xbd670cf9	-0.056408856
108	0xbcae63ea	-0.021287877
109	0x3c5b2bc2	0.013377132
110	0xbc213401	-0.009839059
111	0xbd77befc	-0.06048487
112	0xbd85b815	-0.065292515
113	0xbd826e7f	-0.06368732
114	0xbc5da5cc	-0.013528299
115	0x3d7e8a03	0.062143337
116	0x3cf37c05	0.029722223
117	0x3cce96d2	0.025218401
118	0xbd838808	-0.0642243
119	0x3d355394	0.04426916
120	0x3c293ac3	0.010328951
121	0x3d6af152	0.057359047
122	0x3ba0204a	0.0048866617
123	0xbd5b326b	-0.05351488
124	0xbc764873	-0.015031922
125	0xbcd08062	-0.025451843
126	0xbd0b97e9	-0.03408042
127	0xbd913768	-0.07090646
128	0x3d8b1cee	0.06792627
129	0x3cc390e2	0.023872796
130	0xbd2bdcea	-0.041958727
131	0x3c1ae0d8	0.009453021
132	0x3d7f4f01	0.062331203
133	0xbc639f70	-0.013892993
134	0xbd6766f2	-0.05649466
135	0xbbe89080	-0.007097304
136	0x3d10122c	0.03517358
137	0xbdaaf7bd	-0.083480336
138	0x3bc6a817	0.0060625183
139	0xbd3c9276	-0.046038114
140	0x3c569c36	0.013098767
141	0xbaeb9581	-0.0017973633
142	0xbc015b39	-0.007895284
143	0xbab11f0d	-0.0013513282
144	0xbd041b80	-0.03225279
145	0xbc86d8de	-0.016460832
146	0x3ce4d8ab	0.027935347
147	0xbd9e8937	-0.077410154
148	0x3cbe2075	0.023208836
149	0x3c175f62	0.00923905
150	0xbccd028e	-0.025025632
151	0x3b270406	0.0025484576
152	0xbd3f9c91	-0.046780173
153	0xbd865307	-0.06558805
154	0xbd54224b	-0.051790517
155	0x3d13768f	0.03600174
156	0x3d5ccde0	0.053907275
157	0x3cf264e9	0.029589133
158	0xba68b593	-0.00088771543
159	0x3d17fcc3	0.037106287
160	0x3d643941	0.055718664
161	0xbd1393aa	-0.036029495
162	0x3c8de355	0.017320314
163	0xbb035a49	-0.0020042828
164	0x3d87a233	0.06622734
165	0xbd2c1601	-0.042013172
166	0xbd960011	-0.073242314
167	0xbd959075	-0.073029436
168	0xbd23ea11	-0.040018145
169	0x3cf041c8	0.029328242
170	0xbd8d4ee7	-0.06899815
171	0x3d8e6c14	0.06954208
172	0xbcca2aea	-0.024678666
173	0x3db61cc6	0.08892207
174	0xbccaf60e	-0.024775531
175	0xbd3f8ed6	-0.04676708
176	0x3d8d589e	0.06901668
177	0x3d3c4722	0.045966275
178	0xbc39ea7a	-0.0113474075
179	0xbd89fbf3	-0.067375086
180	0xbb8ca88d	-0.0042925538
181	0xbd03f036	-0.032211505
182	0xbd40513b	-0.046952467
183	0x3c8ad2ce	0.016946223
184	0x3ce62bdf	0.028097091
185	0xbcdaed99	-0.026724624
186	0xbd6948e8	-0.056954294
187	0xbb82d1cb	-0.0039922944
188	0xbbf075c4	-0.0073382575
189	0x3c811b27	0.015760018
190	0x3d1d2ad2	0.038370915
191	0x3d57c81a	0.052681066
192	0xbd994028	-0.0748294
193	0xbcf33a09	-0.02969076
194	0x3d831ef5	0.06402389
195	0xbc399f07	-0.011329419
196	0x3dbe2d72	0.09286012
197	0xbd16eee5	-0.03684892
198	0xbd390a79	-0.045176003
199	0x3d25874d	0.040412236
200	0xbd757e63	-0.059934985
201	0xbd6554b2	-0.055988975
202	0x3d637e99	0.055540655
203	0xbc11d5e1	-0.00890109
204	0xbd5c4c54	-0.05378373
205	0xbd6b913f	-0.057511564
206	0xbbcedefe	-0.006313204
207	0xbd464329	-0.048403893
208	0xbd24a0d5	-0.040192444
209	0xbc02e95f	-0.00799021
210	0x3c06556c	0.008199077
211	0xbd3bf59d	-0.045888532
212	0x3d701289	0.058611427
213	0xbd19af91	-0.03752095
214	0x3d0173fb	0.03160475
215	0xbd5ce806	-0.053932212
216	0xbcb5b53a	-0.022181142
217	0xbda6409b	-0.08117791
218	0xbc5c2e38	-0.013438754
219	0x3d9950e1	0.074861296
220	0xbd9ce8e9	-0.076616116
221	0xbd44e7e2	-0.048072703
222	0x3c05ac75	0.008158793
223	0xbc967f2b	-0.018371185
224	0xbd69e30f	-0.057101306
225	0x3c25244e	0.0100794565
226	0x3c67bd40	0.014144242
227	0xbc882c5d	-0.016622717
228	0xbd9450f0	-0.07242
229	0x3d4f0fba	0.050552107
230	0x3da67a17	0.081287555
231	0xbced43f4	-0.028963067
232	0xbd000007	-0.031250026
233	0x3d1a2b31	0.037638847
234	0xbce2cbbb	-0.027685037
235	0x3ae43d5d	0.0017413307
236	0x3da62d45	0.08114103
237	0xbce7d014	-0.028297462
238	0xbcdc20e4	-0.026871152
239	0x3d9edaa1	0.07756544
240	0x3ca823a2	0.020524804
241	0x3d9a955d	0.0754802
242	0xbd274d99	-0.040845487
243	0xbd138b5a	-0.036021568
244	0xbd947278	-0.07248396
245	0xbba867e8	-0.0051393397
246	0x3d946e25	0.07247571
247	0xbd96ba8a	-0.07359798
248	0xbd8a3c7b	-0.06749817
249	0xbbff1026	-0.0077839075
250	0xbd93d77b	-0.07218834
251	0x3d5e1c52	0.054226227
252	0x3cbc12d7	0.022958202
253	0x3c93c805	0.018039713
254	0x3d1e1e11	0.038602892
255	0x3d4681ae	0.048463516

bias f4 [16]
0	0x3da16552	0.078806534
1	0xbc53b7ae	-0.012922211
2	0x3d293811	0.041313235
3	0x3d7addb3	0.061246585
4	0xbc4891fb	-0.012241836
5	0xbb9109a3	-0.0044261976
6	0xbd92b1c9	-0.07162816
7	0x3d7c4e35	0.06159802
8	0xbccc9641	-0.02497399
9	0x3d2d8588	0.042363673
10	0x3d961ae1	0.073293455
11	0x38e24450	0.00010789244
12	0x3ca70291	0.020386966
13	0xbca0b822	-0.019619051
14	0xbd0e5620	-0.034750104
15	0x3bd02c49	0.0063529355

weight f4 [16, 16, 3, 3]
0	0xbae64ef1	-0.0017571134
1	0xbd84843f	-0.064705364
2	0xbd0c7781	-0.034293655
3	0x3cf51030	0.029914945
4	0xbce56468	-0.028001979
5	0x3cdcf1b9	0.026970731
6	0xbd60824c	-0.05481176
7	0xbd989b78	-0.07451528
8	0xbc65a28d	-0.014015806
9	0xbce0d9f3	-0.027447676
10	0xbd974a14	-0.07387176
11	0x3d4ffa74	0.05077596
12	0xbd4acef8	-0.049513787
13	0xbd24fe04	-0.04028131
14	0x3c8cd44d	0.017191077
15	0x3d8e47e8	0.06947309
16	0x3ccf6b93	0.02531985
17	0xbc236519	-0.009972834
18	0x3d12f501	0.035878185
19	0xbd90a269	-0.07062227
20	0xbccf7fe9	-0.025329547
21	0xbcc4a2ce	-0.024003413
22	0x3d635d54	0.055508927
23	0x3d8faef3	0.07015791
24	0x3c638da5	0.013888751
25	0x3bbe8fa1	0.0058154617
26	0x3b79e70c	0.00381321
27	0x3d72ed90	0.05930859
28	0xbda92281	-0.08258534
29	0xbc692c94	-0.01423182
30	0xbdaa018e	-0.08301078
31	0x3d80febb	0.06298586
32	0x3c941881	0.01807809
33	0x3d12c958	0.035836548
34	0x3da0138d	0.07816229
35	0xbda4f05b	-0.08053657
36	0x3d310aa5	0.043223042
37	0x3c89b76c	0.016811095
38	0xbd8d662f	-0.069042556
39	0xbc6dfcfa	-0.014525646
40	0x3d13ffbf	0.03613257
41	0x3d3292e5	0.04359712
42	0xbcc1aa27	-0.023640705
43	0xbc48aaa8	-0.012247719
44	0x3d8fc24d	0.07019482
45	0x3dadf27f	0.08493518
46	0xbd83bdf2	-0.064327136
47	0xbd189dba	-0.037259795
48	0x3c7c1c63	0.015387627
49	0xbd22fa81	-0.03978968
50	0xbcc148dd	-0.023594314
51	0x3da9e39a	0.08295365
52	0xbbd9e429	-0.0066495133
53	0x3aa606cd	0.0012666822
54	0xbccd2786	-0.02504326
55	0xbcf0f6d6	-0.029414576
56	0x3da483a6	0.080329224
57	0x3d50d677	0.05098578
58	0x3d9b4814	0.07582107
59	0x3d817343	0.063208126
60	0xbd391e24	-0.04519476
61	0xbd040a5c	-0.032236442
62	0xbc66072b	-0.014039795
63	0x3ca45ea2	0.020064656
64	0xbd5b0a52	-0.05347664
65	0xbd7a2461	-0.06106985
66	0xbd186b3d	-0.037211645
67	0xbd635019	-0.05549631
68	0xbd831ed0	-0.064023614
69	0xbce8b74b	-0.028407713
70	0x3d5202a5	0.051272053
71	0x3d2f4ff8	0.042800874
72	0x3d6d6493	0.057957243
73	0x3d0517c1	0.032493357
74	0x3d139d26	0.03603854
75	0x3ce19e6d	0.027541364
76	0xbd005051	-0.031326596
77	0x3b755938	0.0037437212
78	0x3d539a04	0.051660553
79	0x3d4a437f	0.049380776
80	0x3d69b44b	0.057056706
81	0x3d7c74d2	0.061634846
82	0x3d7984dc	0.06091772
83	0xbd94073e	-0.07227944
84	0xbd913ed3	-0.07092061
85	0x3c72e319	0.014824652
86	0x3ba3fbc8	0.00500438
87	0x3d159b77	0.036525216
88	0x3d9fbf34	0.07800141
89	0x3d38985a	0.04506717
90	0x3dccff61	0.10009647
91	0x3d9e32d3	0.07724538
92	0xbd3e1072	-0.046402402
93	0x3d4b1a23	0.049585473
94	0x3d5f8cb4	0.054577544
95	0xbc259543	-0.010106388
96	0x3ce2f5f1	0.027705165
97	0xbd2608d4	-0.040535763
98	0xbd78050c	-0.060551688
99	0xbca961ad	-0.020676458
100	0x3c9c767e	0.01909947
101	0x3cfb4601	0.030673029
102	0xbcf5146d	-0.029916966
103	0xbd9f8160	-0.07788348
104	0xbda034eb	-0.07822593
105	0x3ce5940c	0.028024696
106	0x3d7332bc	0.059374556
107	0xbb47897e	-0.0030446942
108	0xbd6c32c2	-0.057665594
109	0xbd1f1b3f	-0.038844343
110	0xbd6c3979	-0.057671998
111	0x3d0ea185	0.034822006
112	0xbd9a2fdb	-0.07528659
113	0x3c996ec8	0.018729582
114	0x3cd2173b	0.025645843
115	0x3d1af884	0.03783466
116	0xbd8b6966	-0.068072125
117	0x3d81879f	0.06324696
118	0xbcafefc9	-0.021476643
119	0x3d7bec97	0.061504927
120	0xbd1227f8	-0.03568265
121	0x3dabd09f	0.08389401
122	0x3d7d50fb	0.061844807
123	0x3d3e661e	0.046484105
124	0x3daee5c6	0.085399196
125	0xbcbac84e	-0.02280059
126	0xbd8850a4	-0.06656006
127	0x3ba6b776	0.005087788
128	0xbcc6ebb7	-0.02428232
129	0x3d121c99	0.035671804
130	0xbd004deb	-0.03132431
131	0xbd2ec545	-0.0426686
132	0x3bce3e08	0.006294016
133	0x3c6f0e5b	0.014590825
134	0x3d9b5b52	0.07585777
135	0xbcd7125d	-0.026253873
136	0x3d8580b7	0.06518691
137	0x3cf1f3ef	0.029535262
138	0x3ce275d2	0.027644072
139	0xbd9447a8	-0.0724023
140	0x3d905525	0.0704749
141	0x3d47ff43	0.04882742
142	0x3c2c7616	0.010526201
143	0xbcf62fb1	-0.030052038
144	0xbd1eda1c	-0.038782224
145	0x3d8fa462	0.070137754
146	0xbd9ee1ae	-0.07757889
147	0xba606d38	-0.0008561197
148	0x3c7d87f6	0.01547431
149	0xbc258235	-0.010101845
150	0xbba9fd17	-0.0051876414
151	0xbcb23de2	-0.021758024
152	0x3c1849d6	0.009294948
153	0xbd0ddc30	-0.034633815
154	0xbd4f07e6	-0.050544642
155	0xbd448593	-0.04797895
156	0xbd13bfdf	-0.036071654
157	0x3d8dd7e1	0.06925941
158	0x3d4d37b0	0.050101936
159	0xbdab7256	-0.08371417
160	0xbd0b2d20	-0.03397858
161	0xbb801f40	-0.0039099753
162	0x3d355234	0.044267848
163	0xbd8c2cfd	-0.06844518
164	0x3ba5abbf	0.005055874
165	0x3ca6f41b	0.02038007
166	0x3c81a50e	0.015825775
167	0x3d95e0ed	0.07318292
168	0xbd85b5df	-0.0652883
169	0xbd2a62fe	-0.041598313
170	0x3d6f5c96	0.058437906
171	0xbd86194d	-0.065477945
172	0x3ad3eb05	0.0016168064
173	0x3d38f9ed	0.045160223
174	0xbd6aeb04	-0.057353035
175	0x3ccd1269	0.025033193
176	0x3d562233	0.05227871
177	0x3cce6ef6	0.025199395
178	0xbd556315	-0.052096445
179	0xbd24c082	-0.040222652
180	0xbd99a74a	-0.07502611
181	0x3da582a4	0.08081558
182	0xbd63413f	-0.055482145
183	0xbd2da46d	-0.042393137
184	0xbd894c53	-0.06704011
185	0xbd128cee	-0.035778932
186	0x3ce4868e	0.027896192
187	0x3d8fb120	0.07016206
188	0x3c21b193	0.009868997
189	0x3d62b4c9	0.05534819
190	0x3c108a9d	0.0088221105
191	0x3b59b3f3	0.003321883
192	0x3c76dc21	0.015067131
193	0xbd9248d7	-0.07142799
194	0x3d8c6a6b	0.06856235
195	0x3d521915	0.05129345
196	0xbcc6fe2c	-0.02429112
197	0x3d8b8841	0.06813098
198	0x3d38d3d1	0.04512388
199	0xbc658fe1	-0.014011354
200	0xbd668c97	-0.05628642
201	0xbd741bbb	-0.05959676
202	0x3c5ad9eb	0.01335762
203	0xbc220b86	-0.009890443
204	0xbd0eb100	-0.03483677
205	0x3c42f424	0.011899028
206	0x3d1b89ea	0.037973322
207	0x3d896d58	0.06710309
208	0xbb364cd9	-0.00278168
209	0xbce20fad	-0.027595365
210	0x3d2deaae	0.042460136
211	0xbd0be7be	-0.034156553
212	0x3d034a0b	0.032053035
213	0xbaf2a8e1	-0.0018513465
214	0x3d0d364c	0.03447561
215	0x3c924295	0.017854014
216	0x3cdfc725	0.02731664
217	0x3c8dc9e5	0.017308185
218	0xbda29a59	-0.07939596
219	0xbda277d1	-0.079330094
220	0x3d14a00b	0.03628544
221	0x3d2558ce	0.040367894
222	0xbd5437f0	-0.05181116
223	0xbd43e367	-0.04782429
224	0x3cf45407	0.029825224
225	0xbd89dccb	-0.06731566
226	0x3d9eca34	0.07753411
227	0x3b7d2fbf	0.0038633195
228	0xbd04eca0	-0.032452226
229	0x3ca24bb9	0.019811498
230	0xbd93d26f	-0.072178714
231	0x3ca1b6d1	0.019740494
232	0xbd024307	-0.031802204
233	0x3c8aa7f4	0.01692579
234	0x3a4a1824	0.0007709286
235	0x3c2d2e4b	0.010570119
236	0xbc40e941	-0.011774362
237	0x3d4960a4	0.04916443
238	0x3d7bfe2e	0.0615217
239	0x3ccddac4	0.02512873
240	0xbd817d2d	-0.063227035
241	0x3d2ac709	0.04169372
242	0x3cdd0a1a	0.026982356
243	0xbbf251d5	-0.007395009
244	0xbd3e33a4	-0.046435967
245	0x3d96c16d	0.07361112
246	0x3d86249a	0.0654995
247	0x3d7e6ebf	0.062117334
248	0x3d825248	0.0636335
249	0xbd6a8cde	-0.057263248
250	0xbcb5b6dc	-0.02218192
251	0xbcbc2e77	-0.022971375
252	0x3c8b7ce1	0.01702732
253	0xbd8a3d56	-0.0674998
254	0x3dab23bb	0.083564244
255	0xbc82abcf	-0.015951065

bias f4 [16]
0	0x3ce95169	0.028481202
1	0xbcf657a7	-0.030071093
2	0x3d7180ef	0.05896085
3	0xbdabdc86	-0.08391671
4	0x3d7297e8	0.0592269
5	0xbd1063e5	-0.035251517
6	0xbd8fb5f6	-0.07017128
7	0xbd68828f	-0.056765135
8	0xbd992480	-0.07477665
9	0xbc37984a	-0.011205742
10	0x3c9306f7	0.017947657
11	0xbc2ae373	-0.010430205
12	0xbcc99981	-0.02460933
13	0x3d35fd43	0.044430982
14	0x3d5fcf6f	0.054641183
15	0xbc5d333a	-0.013500983

weight f4 [32, 32, 3, 3]
0	0x3b394ea1	0.0028275626
1	0x3c0d10af	0.008609935
2	0x3b7ae039	0.003828062
3	0xbd4bcad3	-0.049753975
4	0x3ca22138	0.01979123
5	0xbb9ab412	-0.004721173
6	0x3d22af67	0.039718058
7	0xbce1db47	-0.02757038
8	0x3cfe293f	0.031025527
9	0x3c6617cb	0.014043759
10	0x3d32dc18	0.04366693
11	0x3d6b25b1	0.057408992
12	0x3d0dc6d8	0.03461346
13	0xbd1bd61e	-0.038045995
14	0xbd56f517	-0.05247983
15	0xbd4a4a81	-0.04938746
16	0xbd466b49	-0.04844216
17	0xbca5aa3d	-0.020222778
18	0x3d46487d	0.048408974
19	0xbc3a4256	-0.011368355
20	0xba970dda	-0.0011524514
21	0x3d58f16c	0.052964613
22	0xb9c78053	-0.00038051847
23	0x3d642830	0.05570239
24	0x3d5c738e	0.05382114
25	0xbb9375c8	-0.0045001246
26	0x3d3019e8	0.042993456
27	0xbd6cc0a8	-0.05780092
28	0x3d063d73	0.032773446
29	0x3b80a180	0.0039255023
30	0xbc238601	-0.0099806795
31	0xbc165401	-0.0091753015
32	0xbcac2eb6	-0.021018367
33	0xbd65ea6f	-0.056131776
34	0x3c4998b7	0.012304476
35	0xbc55278b	-0.013009916
36	0x3d208352	0.039187737
37	0x3d3679f1	0.044549886
38	0xbd31e9fe	-0.043436043
39	0x3d3d1c9a	0.046169855
40	0x3c1692fd	0.009190318
41	0xbd2ab207	-0.041673686
42	0x3d6f11c8	0.058366567
43	0x3cf959b6	0.030438285
44	0xbc1483c4	-0.0090646185
45	0x3bc05d42	0.005870492
46	0xbd11a80f	-0.035560664
47	0x3a1c33f1	0.00059586676
48	0xbc8b9f7c	-0.017043822
49	0xbd52dc8b	-0.051479857
50	0x3d4158f5	0.047203977
51	0xbd199470	-0.037495077
52	0xbcde1f8c	-0.027114652
53	0x3d695e06	0.056974433
54	0xbd005581	-0.031331543
55	0xbae34206	-0.0017338402
56	0xbd0aea86	-0.033915065
57	0x3d32931a	0.04359732
58	0xbc4c4511	-0.012467639
59	0xbd282dae	-0.04105919
60	0xbb73dcf7	-0.0037210563
61	0x3c028929	0.007967272
62	0xbc976e0a	-0.018485088
63	0xbd1e525c	-0.038652763
64	0xbd3e5ba8	-0.04647413
65	0xbbfbcf68	-0.007684637
66	0xbc835f9c	-0.016036801
67	0x3c4e0f99	0.012576961
68	0x3cca3bfe	0.02468681
69	0x3c261af5	0.010138263
70	0xbd405454	-0.04695542
71	0xbcf5645e	-0.029955085
72	0xbce54b23	-0.02798993
73	0xbd45988b	-0.04824118
74	0x3bbf37d6	0.0058355136
75	0x3ca76c38	0.020437345
76	0x3d2890b3	0.04115362
77	0x3d0de8bc	0.03464578
78	0xbd45832a	-0.04822079
79	0x3d0b7a41	0.034052137
80	0xbd516a5c	-0.051126823
81	0x3b532de2	0.0032223393
82	0xbd0535ff	-0.032522198
83	0x3c9e0527	0.019289566
84	0x3d28685e	0.041115157
85	0x3bfb4fe8	0.0076694377
86	0x3d04a8cc	0.03238754
87	0xbd06e682	-0.032934673
88	0x3d55af91	0.052169386
89	0x3b8bd54a	0.0042673694
90	0xbd1553e3	-0.036456954
91	0x3d1cdb5e	0.038295142
92	0x3ce5f3fe	0.028070446
93	0x3d4f926f	0.05067676
94	0xbc0ca23d	-0.0085836025
95	0x3d0b4f1d	0.034010995
96	0xbd1f7553	-0.03893025
97	0x3d45135e	0.048114173
98	0xbbd0b327	-0.006369013
99	0xbc969246	-0.018380295
100	0xbcb63384	-0.022241361
101	0xbd18ce1d	-0.03730594
102	0xbc71695b	-0.014734591
103	0xbc852c05	-0.016256342
104	0xbb8793ff	-0.0041375156
105	0x3bd6be7a	0.0065534683
106	0x3b8ebad9	0.00435577
107	0x3d780412	0.060550757
108	0x3d140bf3	0.03614421
109	0xbca9201f	-0.0206452
110	0x3d3a6103	0.045502674
111	0x3b03509a	0.0020037056
112	0x3d5e8708	0.054327995
113	0x3cce0ab0	0.02515158
114	0x3ce7124f	0.028206972
115	0xbd032c8e	-0.032024913
116	0xbd6fbc34	-0.058529094
117	0xbd4902a9	-0.049074803
118	0x3c663642	0.014051022
119	0xbca937ce	-0.020656493
120	0x3c3042b9	0.010758095
121	0xbba1714a	-0.004926835
122	0xbd1a6763	-0.037696254
123	0xbd267b70	-0.040645063
124	0xbd601119	-0.054703806
125	0xbcb9db4d	-0.022687579
126	0x3d6f84ec	0.058476374
127	0x3cf5b28e	0.029992368
128	0x3d2b4b42	0.04181982
129	0x3cd513d4	0.026010431
130	0x3b81bfef	0.003959648
131	0xbbc2f644	-0.0059497673
132	0xbd12dfd6	-0.035857998
133	0xbbb4f53b	-0.005522398
134	0x3c5c9fe0	0.013465852
135	0xbc8e306b	-0.017357072
136	0x3c80db60	0.015729606
137	0xbb8af85d	-0.004241033
138	0xbc61cc28	-0.013781585
139	0xbc8a92d6	-0.01691572
140	0xbc0951f3	-0.008381355
141	0xbd4bc2a0	-0.049746156
142	0x3c1ed4e6	0.009694314
143	0xbcc87248	-0.024468556
144	0x3d470db0	0.048597038
145	0x3b8fc98e	0.004388041
146	0xbccb94a3	-0.024851149
147	0xbca2623d	-0.019822234
148	0xbcdce586	-0.026964914
149	0x3c8f0836	0.01745997
150	0xbaccc3b4	-0.0015622289
151	0xbd6b6d8f	-0.05747753
152	0xbbed6d3f	-0.007245689
153	0xbbca8406	-0.006180289
154	0x3d05e144	0.032685533
155	0xbd40225b	-0.046907764
156	0x3d0d92cd	0.03456383
157	0x3ca75aca	0.020429034
158	0x3d0256e6	0.031821154
159	0x3d3ae955	0.04563268
160	0x3d6171c5	0.05504014
161	0x39e4fb3d	0.00043674736
162	0x3d1d699b	0.03843079
163	0xbd30d9e0	-0.04317653
164	0x3cccba55	0.024991194
165	0x3d3416ae	0.04396694
166	0x3d418d3c	0.047253832
167	0x3ce847c5	0.028354535
168	0x3d10370f	0.035208758
169	0xbc65ac88	-0.014018185
170	0xbbc12d0d	-0.005895263
171	0x3d1cdd35	0.038296897
172	0xbd26dc51	-0.040737454
173	0xbd3cf79c	-0.046134576
174	0xbd37a576	-0.04483553
175	0x3d56f684	0.05248119
176	0xbd0a9316	-0.03383168
177	0xbbd71271	-0.0065634777
178	0x3ae904b8	0.0017777896
179	0xbbc4f31c	-0.006010426
180	0x3c8c4379	0.017122017
181	0x3d56a2d4	0.05240138
182	0xbbe3b726	-0.006949323
183	0xbcf435b6	-0.029810768
184	0xbba4b3b2	-0.005026304
185	0xbd5a6c3f	-0.053325888
186	0x3d4c1a10	0.049829543
187	0xbd3f7f8b	-0.046752494
188	0x3c15c3a4	0.009140883
189	0xbd4a0876	-0.049324475
190	0xbbcc3c3d	-0.006232767
191	0x3b4747d7	0.003040781
192	0xbd62936f	-0.055316385
193	0xbd2f3641	-0.04277635
194	0x3c64e09f	0.0139695695
195	0x3c9a0c96	0.01880483
196	0x3ba52345	0.005039605
197	0xbd6bae09	-0.05753902
198	0x3d5ff6b9	0.054678652
199	0xbb9aabf1	-0.004720204
200	0x3d244f55	0.04011472
201	0x3b74e844	0.0037369886
202	0xbc11efa4	-0.008907232
203	0x3d440efc	0.047865853
204	0x3d3a05ef	0.045415815
205	0xbd2330af	-0.03984135
206	0x3d61a6bd	0.055090655
207	0xbd4ed6d5	-0.05049785
208	0xbce02566	-0.027361583
209	0xbd1353ea	-0.0359687
210	0x3cbf7dba	0.02337538
211	0xbb82e2f5	-0.0039943405
212	0xbd36d458	-0.0446361
213	0x3d3168c4	0.043312803
214	0xbd0cbc1f	-0.034359094
215	0xbb0eb00e	-0.0021772417
216	0x3c5e9248	0.013584681
217	0xbc194a24	-0.009356055
218	0x3d6ce870	0.057838857
219	0x3c528000	0.0128479
220	0x3d303533	0.043019485
221	0x3d196647	0.037451055
222	0xbbfb8553	-0.0076758056
223	0xbd0984f1	-0.03357405
224	0xbb8c2c76	-0.004277761
225	0xbd6c4fb3	-0.057693195
226	0xbc5c5a67	-0.013449288
227	0xbd09c0f3	-0.033631276
228	0x3ccbdce8	0.02488561
229	0xbca1cd68	-0.019751266
230	0x3ce5c7d3	0.028049385
231	0xbc626dab	-0.013820092
232	0x3b110df4	0.002213356
233	0x3c72d12f	0.014820381
234	0xbd5877da	-0.052848674
235	0xbd63275b	-0.055457454
236	0xbd45f3e3	-0.04832829
237	0xb9c7203a	-0.00037980248
238	0x3c9f71ec	0.019463502
239	0x3d63a937	0.055581298
240	0x3d4b2a3f	0.049600836
241	0xbd4b323f	-0.049608465
242	0xbc677ffd	-0.014129636
243	0xbca70d02	-0.020391945
244	0xbc2d6bd4	-0.01058479
245	0xbd6a83e1	-0.057254676
246	0x3b214210	0.0024606027
247	0xbcd7ed14	-0.026358165
248	0xbd11691b	-0.035500627
249	0xbcbaba9a	-0.022794057
250	0xbd17730f	-0.036974963
251	0xbb629191	-0.0034571628
252	0xbd240b9e	-0.04005014
253	0xbce18a12	-0.027531657
254	0xbd6afa90	-0.05736786
255	0x3d61172c	0.05495374

bias f4 [32]
0	0x3d31f4f2	0.04344649
1	0x3ca90eeb	0.020636996
2	0xbce26f4a	-0.027640957
3	0x3c4e60a8	0.012596287
4	0xbc2ce0fb	-0.010551686
5	0xbd0f9da2	-0.03506244
6	0x3ce54e19	0.027991341
7	0xbc6cc633	-0.014451551
8	0xbcf36a6b	-0.02971383
9	0xbd7d8018	-0.061889738
10	0x3cc1bceb	0.023649653
11	0xbb135008	-0.0022478122
12	0x3b0b594a	0.0021262937
13	0x3c2c2294	0.010506291
14	0xbb4f96c7	-0.0031675564
15	0xbc1eb79a	-0.009687329
16	0x3d27d19f	0.040971395
17	0x3d2dfcac	0.042477295
18	0x3c09fee3	0.008422586
19	0x3c39d77b	0.011342878
20	0x3cd07cec	0.025450192
21	0x3a1e3f6d	0.0006036673
22	0x3ca81906	0.020519745
23	0xbd253122	-0.04033006
24	0xbd0cce5b	-0.034376483
25	0xbc6b87f5	-0.014375676
26	0x3abaca74	0.001425101
27	0x3b91177e	0.0044278493
28	0xbc9e5ce6	-0.019331407
29	0xbbec6b4d	-0.0072149397
30	0x3bb7e4a1	0.0056119715
31	0x3d5b9310	0.053607047

weight f4 [32, 32, 3, 3]
0	0xbd041cb2	-0.03225393
1	0xbcb4e2d6	-0.02208082
2	0xbd557247	-0.052110936
3	0x3c15c3b5	0.0091408985
4	0x3cd003f0	0.025392503
5	0x3c199d98	0.009375952
6	0xbc55fb24	-0.013060365
7	0xbd5a8b5d	-0.053355563
8	0xbc2363c1	-0.009972514
9	0xbd665387	-0.056232
10	0x3d60757e	0.05479955
11	0x3d66ad04	0.056317344
12	0x3d006ff1	0.031356756
13	0xbd00f5c7	-0.03148439
14	0x3ceeb868	0.029140666
15	0xbcaad60b	-0.020854017
16	0xbd489e1e	-0.048978917
17	0x3bda2f6f	0.0066584866
18	0x3c54f79c	0.012998488
19	0x3c2cbf44	0.010543648
20	0x3d43adc2	0.04777313
21	0xbb373c04	-0.0027959356
22	0xbbd12a88	-0.006383244
23	0x3c5ce1a9	0.013481536
24	0xbc0bc644	-0.008531157
25	0xbd4cd00f	-0.050003108
26	0x3d308cd1	0.043103043
27	0xbc553467	-0.013012982
28	0xbd6d7925	-0.05797686
29	0x3ca47b16	0.020078223
30	0x3b7b195e	0.003831468
31	0x3cf39625	0.02973468
32	0x3d672926	0.056435727
33	0xbbab7411	-0.005232342
34	0xbc7829c1	-0.015146674
35	0xbd478222	-0.04870809
36	0xbd3c636b	-0.04599325
37	0x3ca0273c	0.019549958
38	0xbcb1f291	-0.02172211
39	0xbcd6d795	-0.026225844
40	0x3d0ecf19	0.034865472
41	0xbbe35dc2	-0.006938667
42	0x3d078dc7	0.033094194
43	0xbd6a4633	-0.057195853
44	0x3d56a00c	0.052398726
45	0xbbd06d6c	-0.0063607004
46	0xbd832bdc	-0.0640485
47	0x3c10eb5f	0.008845179
48	0xbd34e577	-0.044164147
49	0xbd4dbbec	-0.050228044
50	0xbbf3366a	-0.007422258
51	0xbcd0ec5d	-0.025503332
52	0xbceb8212	-0.028748546
53	0xbc9cc5cf	-0.019137291
54	0xbcbd3e1a	-0.023100901
55	0x3d5747f0	0.05255884
56	0xbc9dfb27	-0.019284798
57	0x3d4113fb	0.047138195
58	0x3bd040c0	0.006355375
59	0xbd53b8b5	-0.051689822
60	0xbd56078d	-0.052253295
61	0x3d43a825	0.047767777
62	0x3d498fe3	0.049209487
63	0xbd05dac5	-0.032679338
64	0xbd5896b3	-0.052878093
65	0x3d138101	0.0360117
66	0xbd5a78d3	-0.053337883
67	0xbd114edb	-0.035475593
68	0x3cb4ee19	0.02208619
69	0x3d747c16	0.05968865
70	0x3d5088b4	0.05091162
71	0x3bbd5ec5	0.0057791197
72	0xbc318e70	-0.010837182
73	0xbd3ee468	-0.046604544
74	0x3cfa122d	0.030526245
75	0xbd6a7b92	-0.057246752
76	0x3d75411b	0.059876543
77	0x3d484d99	0.048902128
78	0x3ba5752d	0.005049369
79	0x3c804460	0.015657604
80	0x3cb4459a	0.022005845
81	0x3d6144c2	0.054997213
82	0xbc829700	-0.015941143
83	0xbd38f85e	-0.045158736
84	0x3d6f08ac	0.05835788
85	0xbd642c0b	-0.055706065
86	0xbd5ebbf6	-0.054378472
87	0x3ce23b1b	0.027616074
88	0xbd347342	-0.04405523
89	0xbd559c20	-0.052150846
90	0x3c09a14f	0.008400275
91	0xbd267cf9	-0.040646527
92	0x3c879f9c	0.0165556
93	0x3c93b8d4	0.018032469
94	0xbd31bd5c	-0.043393478
95	0x3d223e10	0.03960997
96	0xbc7c1e7f	-0.01538813
97	0x3cb26033	0.021774387
98	0xbd55644b	-0.0520976
99	0x3d64ce87	0.055861022
100	0x3d52c4e7	0.051457312
101	0xbd4566db	-0.048193794
102	0x3d65f842	0.05614496
103	0x3c6e66cf	0.014550879
104	0x3c454836	0.012041142
105	0x3cd9b073	0.026573395
106	0xbcd96711	-0.026538404
107	0xbcdb63ea	-0.026781041
108	0x3d38db66	0.04513111
109	0xbd00d14f	-0.031449612
110	0xbd41ec9a	-0.04734478
111	0xbd2d790a	-0.04235176
112	0xbba2b57a	-0.0049654813
113	0x3ccfa28e	0.025346067
114	0xbb72a2f8	-0.0037023406
115	0x3d237973	0.039910745
116	0x3cc603c9	0.024171727
117	0x3bbfe067	0.0058556083
118	0xbcaaaecf	-0.020835308
119	0xbc1c1994	-0.009527583
120	0x3d44e7ab	0.0480725
121	0x3d5475ac	0.051870033
122	0xbd0f6c3e	-0.035015337
123	0x3cae0e8d	0.021247173
124	0xbb72f1b6	-0.003707034
125	0x3d512706	0.051062606
126	0xbc1313e1	-0.0089769075
127	0xbd494444	-0.04913737
128	0xbb8072d8	-0.0039199404
129	0xbc67003d	-0.014099178
130	0x3c1b1a47	0.009466714
131	0xbc98e602	-0.018664364
132	0x3c7bbb89	0.015364536
133	0x3d05285a	0.032509185
134	0x3d760547	0.060063627
135	0xbd2d3506	-0.042286895
136	0x3cb10c17	0.02161221
137	0x3ce2f547	0.027704848
138	0x3d0aa07d	0.03384446
139	0x3cab01ec	0.02087494
140	0xbd10bf74	-0.035338834
141	0x3c93ed76	0.018057566
142	0x3c1d4e7b	0.009601231
143	0xbd4d44df	-0.05011451
144	0x3d1e0b06	0.03858473
145	0xbcd8483b	-0.02640163
146	0x3c3d7a2c	0.011564773
147	0x3c9699f1	0.018383952
148	0x3d1095db	0.035299163
149	0x3d6d0402	0.05786515
150	0xbc959437	-0.01825915
151	0x3d2e6114	0.04257305
152	0x3d46a105	0.048493404
153	0x3c0b1d5d	0.0084908875
154	0xbd856dcb	-0.06515082
155	0x3d116358	0.035495132
156	0xbbaddd02	-0.005305887
157	0xbd89024f	-0.066898935
158	0x3d0dfbdb	0.034664016
159	0x3bac4681	0.005257428
160	0x3cc4dd25	0.024031231
161	0x3c2ca94c	0.01053841
162	0x3a02e0d8	0.0004992611
163	0xbce50f53	-0.027961409
164	0xbd6f0196	-0.05835112
165	0xbd101596	-0.035176836
166	0xbceaa75d	-0.028644258
167	0x3cbd435a	0.023103405
168	0x3cb63259	0.022240805
169	0x3d64656b	0.055760782
170	0xbc8c4436	-0.01712237
171	0x3c84b908	0.016201511
172	0x3d2327d3	0.0398329
173	0xbc141812	-0.009038942
174	0xbc94bc21	-0.018156113
175	0x3d4c6a5d	0.049906123
176	0xbd3a0c0c	-0.045421645
177	0xbd1e2d25	-0.038617272
178	0x3a82f422	0.000999097
179	0x3cd06241	0.025437476
180	0xbcf411f0	-0.02979371
181	0x3d286796	0.041114412
182	0xbc523317	-0.012829564
183	0x3cfb0707	0.030643
184	0x3a55a814	0.0008150351
185	0xbd46aed6	-0.04850658
186	0xbd078fd4	-0.03309615
187	0x3d2015e9	0.039083395
188	0x3d1e6877	0.038673844
189	0xbcdf1293	-0.027230537
190	0xbb449434	-0.0029995563
191	0x3c11fd49	0.008910486
192	0xbcce66a6	-0.025195431
193	0x3d12de96	0.035856806
194	0x3c9abcc5	0.01888884
195	0x3c9f03f3	0.019411063
196	0x3d14ef25	0.03636088
197	0xbcd9a21f	-0.026566563
198	0xbcc6b7d8	-0.024257585
199	0xbc84531b	-0.016152909
200	0xbc2ae1ae	-0.010429783
201	0x3d1bc2d3	0.038027596
202	0xbc910ec0	-0.017707229
203	0xbd39f933	-0.04540367
204	0x3d0fa3a4	0.03506817
205	0xbd456aa2	-0.048197396
206	0xbd55ad69	-0.05216733
207	0xbce7d94c	-0.028301857
208	0xbcce78cb	-0.025204083
209	0xbcb76c1f	-0.022390423
210	0xbd4d401a	-0.05010996
211	0x3d6ab731	0.05730361
212	0x3d18edc1	0.037336115
213	0xbc038b47	-0.008028812
214	0x3c211bf1	0.009833322
215	0xbd50e830	-0.05100268
216	0x3d601d98	0.054715723
217	0xbcaf5d6e	-0.021406855
218	0xbd6494e8	-0.05580607
219	0x3cb7332c	0.022363268
220	0xbcd33630	-0.025782675
221	0x3c65026b	0.013977627
222	0xbd49e7b7	-0.049293246
223	0xbcc3fe91	-0.023925098
224	0x3bda1fea	0.0066566365
225	0x3d2df161	0.042466525
226	0x3d5bf692	0.053701945
227	0xbca02a70	-0.019551486
228	0xbbeedeea	-0.007289757
229	0x3cfc31ac	0.030785404
230	0xbc91661f	-0.01774889
231	0x3d1a0b62	0.03760851
232	0xbd2d599e	-0.042321794
233	0x3cf1f5ff	0.029536245
234	0xbc8a62da	-0.01689284
235	0xbcc86267	-0.024460984
236	0x3d2e5c36	0.042568408
237	0x3b9c254b	0.004765188
238	0x3b013b8c	0.001971933
239	0xbc77e09e	-0.0151292365
240	0x3c9aed37	0.018911941
241	0x3c860d35	0.01636372
242	0xbccc85b5	-0.0249661
243	0xbd1103e6	-0.03540411
244	0x3d320af1	0.043467466
245	0x3cefd23e	0.029275056
246	0x3d50e23e	0.05099701
247	0x3c5a826c	0.013336759
248	0xbd49a62f	-0.04923075
249	0x3d441b3f	0.047877546
250	0xbcd92cbd	-0.02651059
251	0xbd8a512e	-0.06753765
252	0x3c24d683	0.010060909
253	0xbc7cf86e	-0.01544009
254	0x3ce9226b	0.028458795
255	0x3d2a8841	0.041633848

bias f4 [32]
0	0xbd9ac3ab	-0.07556852
1	0xbd7e8a49	-0.062143598
2	0xbd087f6a	-0.033324637
3	0xbd9a6be6	-0.07540111
4	0x3c920038	0.01782237
5	0x3d0e3f27	0.034728196
6	0x3b882426	0.0041547
7	0xbca7b062	-0.020469848
8	0xbd948a6c	-0.072529644
9	0xbc6f660f	-0.014611735
10	0xbc5b0758	-0.01336845
11	0xbd84f39a	-0.06491776
12	0x3ccd7c25	0.02508361
13	0x3d365358	0.044513077
14	0x3c96b4e0	0.018396795
15	0xbccf2997	-0.025288386
16	0xbd162281	-0.036654
17	0x3cfd985a	0.030956436
18	0x3d62f60c	0.05541043
19	0x3be6fce1	0.0070491885
20	0xbc8be404	-0.0170765
21	0xbd3d50f7	-0.046219792
22	0xbc5b350c	-0.013379347
23	0x3b71a1a5	0.003687003
24	0x3d39f98a	0.045403995
25	0xbd50954f	-0.05092364
26	0x3d55134b	0.052020352
27	0xbcf15515	-0.029459516
28	0xbd7214eb	-0.05910198
29	0x3cdfe69a	0.02733164
30	0xbadd031f	-0.0016861892
31	0x3ce5b8c1	0.0280422
