digital_deal/allmodel.pth (torch, 198523 bytes, 14 tensors)

weight f4 [16, 3, 5, 5]
00000000: f09c e4bd 3ffc 943d b519 0e3d 9eee 7bbd
00000010: d5b0 f73c 6059 bcbd 17f2 593d a077 613d
00000020: ef16 bfbd 2882 ab3b 93e2 80bd bd20 7e3c
00000030: 7c69 cfbd faf9 1abc db85 293d 6349 733d
00000040: e2e9 ab3b bfc4 473d ae12 3c3d b99d c43d
00000050: 596a b5bd 2915 43bd cf5f 3cbd b635 5e3d
00000060: da56 bcbd 375c ad3d 806b b03d a0ee 473d
00000070: 5140 c4bd 67dd 22bd 736c 14bc 98db e8bd
00000080: 449c dfbd cfbd 2abc 58ac 4dbd 66a5 d13c
00000090: 6f3d 6ebd 4a6a 0fbd 9513 a93d f455 7f3d
000000a0: f974 85bb 067d 1c3d 9771 863b 97f9 0e3c
000000b0: f053 edbd 7d18 aa3d 201e 343d 318e d3bd
000000c0: 7d98 88bd 49b1 be3d 1d6d 1dbd fc2d b9bd
000000d0: 7515 9a3d ac00 d6bc 3fac b3bc 92b5 86bd
000000e0: 361d bc3b 80c7 203d 4bef 083d bcd0 0fbd
000000f0: 5082 10bd f0b7 8fbd b970 d13d bb41 11bd
00000100: 6d67 eb3c 6f22 b13d c73c dfbc 0640 c9bd
00000110: 0faf 12bd 0335 b23d e08a 6a3d d693 1fbd
00000120: 1830 bc3d cc6c 273a 64ab df3c 8ac4 81bc
00000130: 0e46 7ebd b4be 29bd b497 d6bd b5c6 513d
00000140: f524 c53d bdce babc b3a8 aa3c 1d76 963d
00000150: d3c9 1ebd 373c 63bc b4cd 84bd 4748 a2bc
00000160: da13 ddbd 5f70 3ebd f53b 1cbd 5980 313c
00000170: 7ae3 bbbd 7bd2 db3d 0425 113c 24cb c13d
00000180: dd3f f9bc e0b8 0f3b 94c8 be3b 3851 65bd
00000190: 40a6 ed3a 6587 e3bb 37f0 d03d d9f2 0fbc
000001a0: 6817 2a3c 728b ed3c 37f5 96bd 79e3 983d
000001b0: 03ea 71bd 6f1d 053d 1b8b 7e3d d60d bc3d
000001c0: adc8 91bc 7bb7 22bd df9b 50bd b261 713d
000001d0: 6cea c4bc 13bc 763d 763f f63c 559a 42bd
000001e0: 2752 82bd 683f 88bd 0601 bcbd ffdb e03d
000001f0: a74a 023d 855c e93d 38b5 9fbb 2897 293d
00000200: b2f5 01bd cfa6 863d 82a0 debd 31ca 873d
00000210: 9e1e 85bd 9a89 acbd 55e5 693d e8b0 eebc
00000220: d301 57bc 0dc3 d5bd bcba e2bd da27 83bd
00000230: 83a7 9b3b c253 c6bd f6a8 c1bc c50b 9bbb
00000240: b89b 8fbd d3f3 8cbd cdf2 b8bd 7043 e8bd
00000250: b743 cd3d 0f90 c23d b16d 98bd 3de2 60bc
00000260: 1e89 b83d f07e 8ebd 5b0a 263c 77be 013c
00000270: 869f c9bd ec2e a33d 8ce6 1f3d 7550 cbbd
00000280: 0af6 aabd 351a 923d 80b5 72bd 7bac a5bc
00000290: 3ea0 a73d b5cb d0bc e6fe b63c 71f2 c2bc
000002a0: 1ffb f73c 1a60 73bd ce71 fd3c d8b1 8e3d
000002b0: 2908 bc3c 55fb 83bd e124 d53d 9b3d 893d
000002c0: d73c 38bd 2bbd 0f3c 9710 4bbd 98f2 933d
000002d0: bb3d 32bd 7358 863d 52df c1bd dbf0 cfbd
000002e0: 349d 363c d0f3 ee3b 9425 2dbd 016b 30bd
000002f0: 5490 c1bd ae3b bfbd 7134 c4bd 416d e4bd
00000300: 37bc 44bd 226b ae3c 4e34 353b 4417 7f3d
00000310: bfb6 543d f2da 103d 7eb0 973d 72c5 8dbc
00000320: 28d2 e6bd d982 d93b 8a96 e9bd 0185 e33c
00000330: 92ca ac3d ee30 10bd 8333 9abd 9079 b73c
00000340: 7830 1e3d 21e3 b0bd 9f60 6e3d e6cb 353d
00000350: 89b1 a73c 72ac d53c 4843 e63c a062 12bd
00000360: 9001 fb3c a7b1 95bd 3534 cebc 0b7a babc
00000370: 6b4e c6bd bef6 01bd 39a4 b4bd 5597 023d
00000380: 670f 163d 7575 be3c 812c f0bd 89c1 f1bb
00000390: 2e12 01be 0b55 6c3d ba3a a43d 4c94 06be
000003a0: 2b5d a5bd 4d56 30bd 9a13 873c fddb 32bd
000003b0: 1a7f 20bc 0aff 82bd a03e e2bd 0e66 d33d
000003c0: 6cf4 95bd 0cdf 28bc 1519 20bd afba 26bd
000003d0: f41f a9bd 18b2 75bd 69a7 b93d 82d2 a83c
000003e0: c52a 7abd 265c 653c 2027 28bd f573 0e3b
000003f0: 3f25 95bd 7620 d63d c766 b53d a2b2 99bd
-0.11162746 0.072746746 0.034692485 -0.06150686 0.030235687 -0.091967344 0.05320939 0.055045724
-0.09330546 0.0052340217 -0.062932156 0.015510735 -0.101275414 -0.009459013 0.04138742 0.05939616
0.005246387 0.048771616 0.04591625 0.09600396 -0.08858175 -0.0476276 -0.045989808 0.05425044
-0.09196253 0.08464854 0.08614254 0.048811555 -0.0958258 -0.039761927 -0.009059059 -0.11370009
-0.10918477 -0.01042123 -0.050213188 0.025591563 -0.058164056 -0.035013475 0.08255688 0.06233783
-0.004072782 0.03820517 0.0041028964 0.008726499 -0.115882754 0.08305452 0.043974042 -0.10329855
-0.0666971 0.09311158 -0.038434137 -0.09041974 0.07523624 -0.026123367 -0.02193272 -0.065776005
0.005740787 0.039252758 0.033431333 -0.035111174 -0.035280526 -0.07017505 0.10226578 -0.035463076
0.02873584 0.08649146 -0.02725066 -0.098266646 -0.03581148 0.087015174 0.057261348 -0.038959347
0.09188861 0.00063867564 0.027303405 -0.015840787 -0.062078528 -0.041441634 -0.10478154 0.051214892
0.096261896 -0.022803659 0.020832395 0.07346747 -0.038766693 -0.013869337 -0.06484547 -0.019809855
-0.10794802 -0.046493884 -0.038143117 0.010833823 -0.09174247 0.10733505 0.008858923 0.09462574
-0.03042596 0.0021930262 0.0058222506 -0.05598566 0.0018131211 -0.0069436305 0.10202067 -0.008785927
0.010381557 0.028997157 -0.0737099 0.07465262 -0.05906106 0.032498773 0.06214438 0.091823265
-0.017795885 -0.03972576 -0.0509299 0.05893106 -0.024037562 0.060237955 0.030059557 -0.047510464
-0.063633256 -0.06652719 -0.09179883 0.10979461 0.031809475 0.113946 -0.004873898 0.04140392
-0.031728454 0.06574785 -0.10870458 0.06630362 -0.064999804 -0.08424683 0.057103474 -0.02913709
-0.0131229935 -0.104375936 -0.11070773 -0.064040855 0.0047501936 -0.09683944 -0.023640137 -0.0047316276
-0.07012123 -0.06882443 -0.090306856 -0.11340988 0.10022681 0.09500133 -0.07442797 -0.013725814
0.09010528 -0.06957805 0.010134305 0.0079189455 -0.0984488 0.07967934 0.039038226 -0.09927455
-0.083477095 0.07133905 -0.059255123 -0.020223847 0.08184861 -0.02548776 0.022338342 -0.023797246
0.030271111 -0.05941782 0.030938055 0.06967515 0.02295311 -0.06444422 0.10407425 0.067012034
-0.044979896 0.0087731285 -0.04957637 0.072240055 -0.043515902 0.06559839 -0.09466423 -0.101533614
0.011145879 0.0072922483 -0.042272165 -0.043070797 -0.094513565 -0.09337555 -0.09580315 -0.11153651
-0.04803106 0.02129132 0.0027649584 0.062278047 0.051932093 0.035365053 0.0740671 -0.017306063
-0.11270553 0.0066379127 -0.11405666 0.027773382 0.08437075 -0.035202913 -0.07529356 0.022396833
0.038620442 -0.086370714 0.058197614 0.044383906 0.020470398 0.026083205 0.028108254 -0.035738587
0.030640393 -0.07309275 -0.025171379 -0.022763273 -0.09682926 -0.031729452 -0.088203855 0.031882603
0.036635783 0.023249367 -0.117272384 -0.0073778075 -0.12604591 0.05769829 0.08019014 -0.13142508
-0.08074411 -0.043051053 0.016488839 -0.04366683 -0.009795928 -0.06396301 -0.11047101 0.103222
-0.073220104 -0.010307085 -0.03908642 -0.04070538 -0.08258048 -0.059984297 0.09065134 0.02060819
-0.061075944 0.013999021 -0.041052938 0.0021736596 -0.07282495 0.1045541 0.08857494 -0.07504775

bias f4 [16]
00000000: 48fb aabd 32b7 eb3d 6c6a 923d 7ed7 843c
00000010: 193f c03c 57f9 a8bd 5db6 303d e1c3 f9bd
00000020: 113e e4bd 6c90 b0bd 2445 4abc ae30 4cbb
00000030: 381a 2bbd f8a3 463d 3679 4ebd 024d 38bd
-0.08348709 0.11509551 0.071492046 0.016216036 0.023467587 -0.08250683 0.043142665 -0.12195564
-0.11144651 -0.08621296 -0.012345586 -0.0031156945 -0.04177305 0.048496217 -0.050408565 -0.044995315

weight f4 [32, 16, 5, 5]
00000000: d632 2cbd 2939 283c 70ed 1a3d 9e14 26bc
00000010: 11bf c0bb 3e82 fb3b 4450 e6bb 8a53 67bc
00000020: ab35 8d3c 7a59 b8bc 5a31 303d 386f feb9
00000030: 7f72 ab3c 22e2 05bd 3b5f 2abd 540e adbc
00000040: f82c 3b3c 08ae aa3c 6a76 ad3c f986 31bd
00000050: 6222 bc3c d6bf 96bc a4ae 4dbb b359 30bc
00000060: 6672 273d 9a63 1cbd b628 22bd a114 773b
00000070: f960 4dbd 4d88 4abd 5a37 323c 2c62 ffbc
00000080: b5cc 21bd c6e4 683b 4cc6 923c b89e 98bb
00000090: a4a8 a83c b6da 01bd 186c 0fbd b8e6 4abb
000000a0: 6353 e73c 3ae3 2c3d 4de7 59bd 11dc 1cbd
000000b0: 619e 243d 5608 893c 65a9 943c 7281 c53c
000000c0: 38e8 213c 834a ecbc 4a7e 37bd 723e 0dbd
000000d0: eeeb e63c 2dff 233b 471a 89bb 246f 8b3c
000000e0: fd33 be3c aca2 13bd 9554 1f3d defc 11bb
000000f0: c014 2abd 03ca 583c 7fbf ed3c 5d98 2bbd
00000100: 982c 603c af41 01bd 2a7c 1a3d d506 98bc
00000110: d156 4b3b 627c 25bd 5bbd 47bd e6c3 0f3d
00000120: af42 c73b 0c4f 2abd b8b8 413c 51c4 d03c
00000130: 3032 3b3d 22c3 603a 5844 4b3b 881e 0bbd
00000140: ea4a c9bb 30d6 eebb 9f5e 50bc 8eee 2ebc
00000150: 26b0 67bd 4cc9 8b3c 5945 14bd 66c5 813d
00000160: 9fbf 35bd a8fc 61bd 2a3d cebc 45ba 0a3d
00000170: f1dd 923d 4eda 90bd acc8 78bd 8877 a23c
00000180: 0662 3cbd ce3f 493c bbc5 a6bd 49e9 51bd
00000190: 614a 8a3d 76df 9f3d a671 3e3c 4385 0a3c
000001a0: fe4a c63c 734c 243c d95a 543d 466a 5cbd
000001b0: c969 32bd ae25 ff3c ba92 973d 1c98 303d
000001c0: 0f3b 1c3d bab8 413c a0e3 9cba 1d2f 5f3d
000001d0: 48b8 6b3c 3fe9 f73c bf21 2bbd d4f2 7c3d
000001e0: 5652 e5bb 6e2b dd3a a3aa 0dbd 9d37 a13c
000001f0: d2c4 8abc 7a3b b03c cbe1 1cbd 7d50 dc3c
00000200: 6b2c 76bc 6000 12bd a00b 603c 0896 183d
00000210: b5b4 953c 044e 5abd ff55 e83c 7c42 153c
00000220: 88e8 8abb 7ff5 28ba 8e07 44bd 9826 fe3b
00000230: 502f adbc 7897 aa3b 5a0e e93a 0688 22bd
00000240: 5807 7d3b 38d3 b23c 6078 0dbc 0a23 1dbd
00000250: 7ef6 003d 3e01 123d 1c78 b2bc 1703 ddbc
00000260: b83a 2ebd 83f6 a73c 7745 85bd 0080 953c
00000270: 8161 8fbc 1c7d 37bd 6a9a da3c 6a94 b63c
00000280: 8701 9b3d 0447 75bb f9df 6f3c b1c8 3e3d
00000290: ead8 0c3d 6036 203d 0a80 19bd f943 29bd
000002a0: 3d1f a03d a1bc 273d 8c8f de3c b72b 9a3c
000002b0: 35c3 05bd fd1e 0d3d 6f1f 6abd a86b 613c
000002c0: 31bc 0a3d 1026 a6bc a2af b3bc 2151 26bd
000002d0: e63a 0abd 611d 0fbb c993 e53c 724a 65bb
000002e0: 78bf a9ba d93e 2c3d c6f6 713b 8c05 00bd
000002f0: 421e 0d3c 86c4 5fbd 339e 253d 16f6 8b3d
00000300: 93aa 6a3c 5c77 6abd d2cc 263d fb30 bc3c
00000310: 2ddf 713d 6992 da3c 048d debc 3bf1 55bc
00000320: 50fc 0d3d 3f2c 043d c3e5 23bc 3f30 ac3c
00000330: 80f4 4ebd 1c60 443d 1711 a0bc 50af 253d
00000340: 266a 15ba 8fb3 9f3c 0282 8cb9 dd87 833d
00000350: c4ce b03d f45b 513d 2f73 d63c 7047 87bb
00000360: 60ae 86bc 2aa0 aa3c f635 243d 6722 953c
00000370: 6a46 4f3d 19eb e53c 3fda 263c cea1 a1bc
00000380: 961b e9bc 134d 61bd 3583 833d c9d8 ec3c
00000390: 9be9 a5bd eef2 a63c c557 2f3c f73b 6a3d
000003a0: 0ef0 e73d 4779 48bc 00c0 7fbd 4548 efbc
000003b0: 7abf da3d edcc 003e 2caa 64bd 5e75 40bc
000003c0: 3903 9bbc 4ea9 493d 52e5 dd3d 8566 19bc
000003d0: e85c 8b3c 077d 3ebd b8ae 3bbc 9af0 a73d
000003e0: e36e 80bd 7946 88bd 6efa ef3b efe7 26bd
000003f0: 89e9 9dba 8449 53bd 0771 c4bd e3d2 7dbd
-0.04204067 0.010267534 0.037824094 -0.010136751 -0.005882152 0.007675438 -0.0070286114 -0.014119038
0.017237505 -0.022503603 0.043015815 -0.0004852952 0.02092862 -0.03268636 -0.041594725 -0.021124996
0.011424296 0.020834938 0.021174628 -0.04334161 0.022965614 -0.018402021 -0.0031384612 -0.010763573
0.040880583 -0.038180925 -0.039589606 0.0037701505 -0.05014131 -0.049446393 0.010877455 -0.031174742
-0.039501864 0.003553675 0.017916821 -0.0046575926 0.020588227 -0.03170272 -0.035015196 -0.0030960273
0.028238004 0.042208888 -0.0531991 -0.03829581 0.040190104 0.016727608 0.01814718 0.024109576
0.009882025 -0.028844124 -0.044798173 -0.03448338 0.028188672 0.0025023923 -0.0041840407 0.01702077
0.02321815 -0.036043808 0.038899023 -0.0022275965 -0.041523695 0.013231757 0.029021977 -0.04189335
0.013682507 -0.03155678 0.03771607 -0.018557945 0.0031027088 -0.040401824 -0.048764568 0.035098933
0.0060809474 -0.04157929 0.011823826 0.025484236 0.04570216 0.0008573999 0.0031016078 -0.033964664
-0.0061429637 -0.0072887167 -0.012717872 -0.010676993 -0.056564473 0.01706376 -0.036198948 0.06336479
-0.044372197 -0.055172592 -0.02517565 0.033869047 0.07171238 -0.07072888 -0.06073825 0.019832388
-0.04599192 0.012283279 -0.08143183 -0.05124787 0.06752468 0.07806294 0.011623776 0.008454624
0.024205681 0.010027993 0.05184445 -0.053812288 -0.043557916 0.031145897 0.07401033 0.043113813
0.03814226 0.011823827 -0.0011969693 0.05448829 0.014387198 0.030262588 -0.04178023 0.061755016
-0.0069983406 0.0016873905 -0.03458656 0.019679839 -0.016939554 0.021512736 -0.03830127 0.026893849
-0.0150252385 -0.03564489 0.013674647 0.037252456 0.018274644 -0.053297058 0.028361319 0.009110089
-0.0042391457 -0.0006445273 -0.047858767 0.0077560656 -0.021140724 0.0052060448 0.0017780766 -0.039680503
0.0038609114 0.021829233 -0.008634657 -0.038363494 0.031485073 0.035645716 -0.021785788 -0.026979012
-0.042536467 0.020503288 -0.0650739 0.018249512 -0.017502548 -0.044797048 0.026684958 0.022287566
0.07568651 -0.0037426362 0.014640802 0.046578113 0.034386553 0.039114356 -0.037475623 -0.04132459
0.07818458 0.040951375 0.027168058 0.018819673 -0.032656867 0.03445338 -0.057158884 0.013758577
0.03387088 -0.020281821 -0.021934334 -0.040604714 -0.033747576 -0.002183758 0.028024571 -0.0034987
-0.0012950739 0.042052124 0.003692077 -0.03125529 0.008613171 -0.05463078 0.040434074 0.068340465
0.014322895 -0.057242736 0.040722676 0.022972574 0.059050728 0.026681142 -0.02716685 -0.013058002
0.034664452 0.03226876 -0.01000351 0.0210191 -0.050526142 0.04794322 -0.0195394 0.040450394
-0.0005699716 0.0194948 -0.00026799744 0.06422398 0.086331874 0.051113084 0.02617797 -0.004128389
-0.01644057 0.020828325 0.040090524 0.01820488 0.05060426 0.028066205 0.01018387 -0.019730475
-0.028455537 -0.055005144 0.0642151 0.028911965 -0.08101197 0.02037951 0.010702078 0.057186093
0.11325084 -0.012235946 -0.062438965 -0.029209265 0.106810525 0.12578173 -0.05582635 -0.0117467325
-0.018922435 0.049233727 0.10834755 -0.0093628215 0.017012075 -0.046505954 -0.01145523 0.08200188
-0.0627115 -0.066540666 0.0073235547 -0.040748533 -0.0012047748 -0.05158378 -0.09591871 -0.061968695

bias f4 [32]
00000000: 2f93 99bd 87f5 0d3d ae84 82bd 651e 0a3d
00000010: 614d e0ba ec4c 403c a5f9 2d3d 7f06 f1ba
00000020: 62df a9bc c9b7 753c 5da9 c4bc a6b3 073d
00000030: ef67 fabc f65f 27bc ba6b e53c a543 ec3b
00000040: c50c ae3c aff9 b0bc 59cc 4abb 9ecf f83c
00000050: 7140 0cbd dd42 0ebb e899 fa3c 740a 1dbd
00000060: 7f85 3bbd ca5c c23c 77db 2d3c dea3 58bc
00000070: 1ed4 383d 5faa 363d dd8e 2e3d d550 b03c
-0.07498776 0.03465798 -0.06372963 0.033720393 -0.0017112904 0.01173709 0.042474408 -0.0018388777
-0.0207364 0.014997431 -0.02400654 0.03313031 -0.030567138 -0.01021575 0.02800547 0.0072102123
0.021246323 -0.021603433 -0.0030944555 0.030372437 -0.034241144 -0.0021707334 0.030590966 -0.038340047
-0.04578161 0.023725886 0.0106114065 -0.013222663 0.045124166 0.044596072 0.042616714 0.021522919

weight f4 [16, 16, 3, 3]
00000000: e34c 44bc ea7b e73c 51a2 efbc dc6d a43d
00000010: a92d 7d3d 4f5b f1bc a67c c63c e709 f4bc
00000020: 5e8f 8a3c 0fa5 81bc 94a5 373d b1e3 6abc
00000030: 9d14 6bbd 1e53 773c d52c 703d 7bfa 293d
00000040: 7979 06bd f92f 59bc 3368 0bbc 08c2 87bd
00000050: 6f18 62ba 944e 88bc 03ac a63b 1a36 95bc
00000060: 6fb5 ba3b e2bf 02bd 2906 1fbd 1b07 4abd
00000070: 9eee adbc 5923 683b 06ae 9a3d fbdf 953d
00000080: bd46 97bc 8414 abbd d82c 84bc b2ad e03c
00000090: 3d6e 373d 0d7d 50bd 2140 d23c b3c8 87bd
000000a0: ecda 64bd ad60 683d 30b8 0e3d 26fc 103d
000000b0: f84d 60bb 5c62 b23c 35db 813d 9ada 393d
000000c0: 3b60 73bd 3522 51bd 05c0 4a3d ff72 bcba
000000d0: 9112 a7bb 15a0 953c d15d ad3d 41b7 973d
000000e0: da65 403d bb2f 643d fa00 67bd fc21 11bd
000000f0: 4b36 a13d 47ed efbc 3b02 b8bb 054c 81bd
00000100: 562b fb3a bcde acbd dc9f 8cbd a716 50bd
00000110: 37af a0bd 1228 c6ba e048 a43d b0e4 473c
00000120: 4fd7 e53c 6b45 5b3d 2ed8 8fbd 05ca 743d
00000130: 42a1 b1bd 3136 a1bd 4241 023c c8ff b2bc
00000140: 9448 9bbb 0898 9b3d 8f6d 91bd 0907 4cbd
00000150: d53a 543d 8d7b b13d 2796 a6bd f3f4 923d
00000160: 0de0 9ebd 720d 97bd b98c 39bc bc0e 7f3d
00000170: 01f8 02bd e2bc 2fbc 7156 6bbd c313 51bd
00000180: d6b6 1dbd 5624 97bc b3d2 5dbd e3a2 cb3a
00000190: e3ae 29bd 8645 91ba ecac 863d e682 05bd
000001a0: 35e3 413c 401b 963d 44a9 a93d 0cc5 343b
000001b0: f90c 553c b59f 45bd 4766 96bc ed00 bc3c
000001c0: 04cb 413d bb0b f23c 60e1 90bd 4f0e 803d
000001d0: 682f e13c 859a 373d 3ff0 41bc 8b75 993d
000001e0: 76a5 883d 6d5d abbd 0d44 aabc e23a a4bc
000001f0: f5f8 1cbd a106 2abd bffe 9e3b 480d 46bd
00000200: 6159 983d 606d d5bb a8fb 9e3d 537d 9ebd
00000210: a516 7b3d febb 0b3d 1803 593c 5163 0eba
00000220: 2911 17bc 297e 293d 645b 24bd 5a81 7fbd
00000230: 81fe 713d 2294 283d 66e6 1e3d 2108 bf3c
00000240: 9559 52bd 9717 26bd 231a 0bbd 5346 573d
00000250: 28b2 31bb 24da 40bc 5e14 693d 766b a8bd
00000260: d052 01bd 870f 28bd 0413 8a3d 3260 3c3d
00000270: 312b d23b 41b3 d0bb 50e6 343c fda8 a5bd
00000280: c781 bd3c 8619 61bd 9437 f13b 32b5 5cbd
00000290: f41d e5bb e5d3 aabd ee11 98bb 5bc3 6cbd
000002a0: 4a1e bb3b 6260 03bc 202d 5d3d 5e73 8abd
000002b0: 8542 8f3d 6716 9cbd 377f b93c a272 183c
000002c0: 5dd9 11bd 0ab5 10bc eb9d 823d 80f4 debc
000002d0: f06d a73d 7f58 d3bb cef0 9cbd 1fe7 303d
000002e0: 3dd0 fcbc 8979 f53c 9c52 92bd d1dc c2bc
000002f0: f6f9 503d a5df 83bd c546 863d c774 8cbd
00000300: 96cb 5e3c ab94 5b3d 7c89 c93c e400 463d
00000310: 28e5 363d 63e1 3abd 1d51 263d 6a82 463b
00000320: e3e0 08ba 700f 1ebc 7edf 1abd 6426 29bd
00000330: 111e 453d 1418 8d3d 351b fb3c 567c 22bd
00000340: 895b a63d c487 69bd 2ed2 b73c b8c8 ab3c
00000350: 5d01 833d 7395 fd3c 6f9b 013c 27f7 44bd
00000360: 2ea9 893d 3813 a03d 0691 47bb 5faa f2bc
00000370: 80ab 32bd de55 60bd 8a75 4dbd 0ea4 9cbc
00000380: 362d 333c f789 54bd 4819 6bbb 15b3 b23b
00000390: 3864 95bd b874 bbbc 6795 203d 8857 543d
000003a0: d980 0e3c e070 883d 9a96 303d 4852 90bd
000003b0: eb01 fbbb caca db37 a2e4 5abd 11ca fd3c
000003c0: 6a83 24bd 1f49 a2bd f1ec 163d f406 1dbd
000003d0: a632 5dbc e204 89bd 8a74 523c c40b 92bd
000003e0: f318 cfbc dec7 603d 18dd 7bbd 4316 0c3c
000003f0: 7c78 90bd 1abf a93d 90ad 80bd 4553 2b3d
-0.011981222 0.028257329 -0.029252203 0.080287665 0.061811123 -0.029462485 0.024229359 -0.029789878
0.016914066 -0.015825776 0.044835642 -0.014336512 -0.057392705 0.0150955 0.058636505 0.041498642
-0.03283069 -0.0132560665 -0.00850873 -0.066288054 -0.0008624857 -0.016639031 0.0050864234 -0.018214274
0.005697898 -0.031921275 -0.038824234 -0.049323183 -0.021231946 0.003542146 0.075527236 0.073181115
-0.018466348 -0.083535224 -0.016134664 0.027426574 0.044782866 -0.050900508 0.025665345 -0.06630077
-0.055872843 0.056732822 0.034843624 0.035396717 -0.003422616 0.021775417 0.063406385 0.04537449
-0.059417944 -0.051058013 0.04949953 -0.0014377533 -0.005098649 0.01826481 0.0846516 0.07408
0.046972133 0.05570958 -0.056397416 -0.0354328 0.07871684 -0.029287947 -0.0056155003 -0.06313328
0.0019162695 -0.08440921 -0.06866428 -0.050802853 -0.078459196 -0.0015118143 0.08021712 0.012200519
0.028056769 0.053533 -0.07023655 0.059762973 -0.086733356 -0.07871664 0.007950129 -0.021850482
-0.0047388766 0.07597357 -0.07100975 -0.049811397 0.05181392 0.086661436 -0.08134108 0.071756266
-0.07757578 -0.07375611 -0.011325055 0.06226991 -0.031974796 -0.0107261855 -0.057455484 -0.051044237
-0.038504444 -0.018449944 -0.054156017 0.0015536215 -0.04142655 -0.0011083342 0.06575951 -0.032595538
0.0118339555 0.07329416 0.08284238 0.002758327 0.013003581 -0.04824801 -0.018359317 0.02294966
0.04731275 0.02954661 -0.07074237 0.06252729 0.027488425 0.044825096 -0.011837064 0.07493123
0.06672184 -0.08367429 -0.020784402 -0.020047609 -0.03832336 -0.041510228 0.0048521454 -0.04835251
0.07438923 -0.0065132827 0.07762843 -0.077387474 0.061300892 0.03411483 0.0132453665 -0.00054316694
-0.0092204 0.04138008 -0.04012622 -0.06237922 0.059080604 0.041156895 0.038793944 0.023319306
-0.051354963 -0.04054984 -0.033960473 0.0525573 -0.0027114246 -0.011770759 0.05690419 -0.082236215
-0.031573117 -0.041030433 0.06741908 0.045990176 0.00641384 -0.006369025 0.011041239 -0.080888726
0.023133172 -0.05495598 0.0073613618 -0.05388374 -0.006992096 -0.08341197 -0.0046408093 -0.057803493
0.005710398 -0.008018585 0.053998113 -0.06760286 0.069951095 -0.076214604 0.022643669 0.009304674
-0.035607684 -0.008832226 0.06377777 -0.027216196 0.08175266 -0.0064497585 -0.07663117 0.043189164
-0.030861015 0.029965179 -0.07144663 -0.023786934 0.05101963 -0.06439141 0.06556467 -0.06858211
0.013598343 0.053608578 0.02460169 0.048340693 0.044652134 -0.0456251 0.0406047 0.0030290135
-0.0005221499 -0.009647235 -0.037810795 -0.041296378 0.048124377 0.06889358 0.030652622 -0.039669357
0.08122928 -0.05701424 0.022439089 0.020969734 0.063967444 0.030955052 0.007910593 -0.048087265
0.067217216 0.07816166 -0.003045143 -0.029622255 -0.043620586 -0.05476939 -0.050160922 -0.019121196
0.010936072 -0.051889386 -0.0035873223 0.005453477 -0.07294506 -0.022882804 0.03920498 0.05184129
0.008697712 0.06662154 0.043112375 -0.07046944 -0.0076601407 2.6201265e-05 -0.053440697 0.030980142
-0.04016439 -0.07924103 0.03684706 -0.03833671 -0.013500845 -0.066903844 0.012845168 -0.0713115
-0.025280451 0.05487811 -0.06149015 0.0085502295 -0.070542306 0.08288403 -0.062831044 0.04182746

bias f4 [16]
00000000: d6a5 28bc 5441 5d3d d326 9c3d 15e6 a43d
00000010: bac0 dfbc d422 86bd bb50 c73c 09c6 de3c
00000020: 50c9 94bd bfff 73bd a37a b3bd cec0 13bd
00000030: dccf 9b3d ad0d 5dbd 134d 93bd 721c 8abc
-0.010293445 0.05401738 0.07624593 0.08051697 -0.027313579 -0.06549612 0.024330487 0.02719404
-0.0726496 -0.05957007 -0.087636255 -0.036072545 0.076080054 -0.05396812 -0.07192435 -0.016859267

weight f4 [16, 16, 3, 3]
00000000: 614f 9b3d 6bdb 89bd 60a2 183d e2b9 023d
00000010: ff5b f5bc 69eb 563d 8861 b03c 7fc6 933d
00000020: 02cb 06bd 8dc6 323c 6a2b 513c 3251 aebc
00000030: c2d1 8c3d c937 f7bc 5dc4 5bbc a8ab 803c
00000040: 38a3 4bbd 080d 3c3d fcec 603c 7905 a7bd
00000050: 371c 66bd 6493 f23c 54b2 a73b 434e 9cbd
00000060: 3b49 8cbd ba38 76bd a428 d3bc edf9 79b7
00000070: 5b04 3c3d b768 6c3c fe70 3d3d d320 b53c
00000080: b9ed 2a3d fc90 11bd a97b 463d 3ab8 5f3d
00000090: ae38 9ebd c6f3 893b 162d 963d 5f3b 9e3d
000000a0: 05db a7bd 3e38 883d 438b 1cbd 0101 203d
000000b0: b9e5 31bc 50af 0abd 3bef eebc 8035 d1bc
000000c0: e709 a1bd 6095 00bd 3c7b 523d c289 103b
000000d0: 10d8 843d 7208 30bc 1e4b a23c da13 95bd
000000e0: 43a2 4abc cf6f a83d 2035 1e3d f57d ec3c
000000f0: 122c 4c3d 6670 c73c 7589 6c3d 9836 86bd
00000100: 5d6e 0a3d 1737 88bc 253f 963d 33ee a53d
00000110: 3bd3 efbb 052a 9c3d 47fb 84bd 4004 a43d
00000120: a709 6dbd ac8e 993c a19e b0bc 3486 90bd
00000130: d8ea 99bd 46d8 853d dac1 25bd fc03 f73c
00000140: fbe8 c43c 9f9a b7bb c707 c73c b850 febc
00000150: b996 b63c 8a32 22bc 0580 a93c a511 88bd
00000160: b4a3 823d 0887 13bd 5f26 cebc c16b 063d
00000170: 3fb3 113d 9225 883d f8d3 16bd 02ec 80bd
00000180: 3176 36bd 8865 57bc 9b80 b4bc bf04 37bd
00000190: 307a 75b9 963c 393d 9c4a e03c 5c72 903d
000001a0: d30f f13c e0c3 b13c 88ad 0b3d 686e 0f3c
000001b0: 1928 30bd 5ce2 973c ee31 6d3d 6e0e a53d
000001c0: ada4 293d efe7 93bd ef27 813d 502e 1ebd
000001d0: 1784 bb3a 2f73 093d acc1 953d 9c1e ecbc
000001e0: c525 023d f9a5 80bd 9aa1 8fbd f682 9e3d
000001f0: 61af 6b3d 9485 623d af3a 4bbd 39ac 67bd
00000200: fea1 003d 0d5f 9e3c c23c 833d abfc a4bd
00000210: 6516 a6bb db4d a53d b98c 943d 7395 e4bc
00000220: 156b 993d 48f8 44bd 471e 19bd 1dde 5dbc
00000230: 0364 8ebd 4e71 e5bc 77b4 42bc 7623 9abd
00000240: 0bb7 44bd c477 093d d833 033c 6b75 8dbd
00000250: 91c7 523d 33ee 07bd 34a4 623d 7546 b2bc
00000260: 3c86 a2bd f097 1b3c d481 9a3d 0676 bfbc
00000270: 694b 4c3d 81fa a2bd 3e11 6f3c 70e1 843d
00000280: a28d 3ebc ead5 813d 72a6 9e3d 76eb 843c
00000290: 196c 13bd cde6 573d bbed 0fbb 236b 9ebc
000002a0: 3d53 883d 1a03 583c fede 13bd d8e2 fabc
000002b0: 210b f3bc 8532 023d c1c2 2dbd 5735 3dbd
000002c0: 2593 2abd 5e0a 013d 7f7d d0bc 622c 3a3d
000002d0: 726b 13bc f706 92bc 66b9 e33c 4364 4c3d
000002e0: a3e3 263d b517 71bd f8a6 8bbd da4f bcbc
000002f0: 2dc9 23bd 524e 3e3d 6f27 b93a 9741 1e3c
00000300: 2872 8ebd 8be8 6bbd 3624 9c3d 06c5 9c3c
00000310: 6631 5c3d 2e6c 56bd 51f9 053d 80e8 6a3d
00000320: d209 82bd 8a19 123d 865b 333c a54b c5bc
00000330: e834 59bd 5f45 96bd fa4e 2ebd 7ce5 043c
00000340: 77f3 fe3c bbaa 42bd 277d 823d efee 65bd
00000350: 7a4c 1f3c c26f 8cbc 8b99 0d3d 4de0 7d3d
00000360: 627c 66bd 5300 973d d6ec 7ebd aad0 15bd
00000370: c0c8 ac3c 9c4e 823d 0325 4a3d 8331 8f3d
00000380: a71a 733a 5cbc 7bbc 04f0 123d c28f ec3c
00000390: 9008 e5bc fb97 a53d c2fa e3bc 7079 94bd
000003a0: 3487 3cbc 61bb 3d3b 0ecb 72bd b19b 88bd
000003b0: 89be 94bc c52c 403d cb4d 42bd 1085 86bc
000003c0: 39d7 9cbd d2b6 a13d 9602 5abd 7593 de3c
000003d0: 4055 1a3b f917 403d c974 c93c 7329 fdbc
000003e0: 5757 6f3d e31f 9cbd 95d4 9d3d 3a2b abbd
000003f0: 5d62 10bd 78ca 833d c2a5 66bc 27a1 203c
0.075835 -0.06731304 0.037264228 0.031915553 -0.029951094 0.0524706 0.021530882 0.072155945
-0.032908447 0.010911596 0.012766698 -0.021278951 0.06875946 -0.030177968 -0.013413516 0.015706852
-0.049716204 0.045910865 0.0137283765 -0.08155341 -0.05617925 0.029611297 0.005117694 -0.07632115
-0.06849905 -0.060112692 -0.025776215 -1.4899747e-05 0.04590259 0.014429263 0.046250336 0.022110378
0.041730616 -0.03553866 0.048457775 0.05461905 -0.077256545 0.0042099683 0.07332818 0.07726168
-0.081960715 0.06651352 -0.038218748 0.039063457 -0.010857993 -0.033858597 -0.029166808 -0.025538206
-0.07863217 -0.031392455 0.051387057 0.0022054766 0.06486523 -0.010744201 0.01981121 -0.07279177
-0.012367788 0.08224451 0.038624883 0.028868655 0.049846716 0.024345588 0.057748277 -0.06553382
0.033796657 -0.016627831 0.073362626 0.081020735 -0.007318882 0.07625202 -0.0649324 0.08008623
-0.057870533 0.018744789 -0.021560015 -0.07056847 -0.07515496 0.065353915 -0.040468074 0.030153267
0.024036875 -0.005603149 0.0242957 -0.03104435 0.022288667 -0.009899745 0.020690927 -0.066439904
0.0637888 -0.036017448 -0.025164781 0.032817606 0.035571333 0.06647791 -0.036823243 -0.06295015
-0.04454631 -0.0131467655 -0.02203398 -0.04468226 -0.00023410539 0.045223795 0.027379327 0.07053062
0.02942649 0.021699846 0.03410104 0.00875435 -0.04300699 0.018540554 0.057908945 0.08059393
0.041416813 -0.07221972 0.06306445 -0.038618386 0.0014306334 0.033557113 0.073123306 -0.02882319
0.0317743 -0.06281657 -0.07013245 0.077398226 0.0575403 0.05530317 -0.049616512 -0.05656073
0.031404488 0.019332433 0.06408073 -0.08056005 -0.0050685876 0.080714904 0.07253403 -0.027903294
0.074911274 -0.048088342 -0.03738239 -0.013541725 -0.069526695 -0.02800813 -0.0118838465 -0.07526295
-0.048026126 0.033561483 0.008007966 -0.06907161 0.051459853 -0.03318615 0.055332378 -0.021762112
-0.079357594 0.009496674 0.07544294 -0.023371708 0.049876604 -0.07957936 0.014591513 0.06488311
-0.011630448 0.06339629 0.07746591 0.016225558 -0.03599176 0.052710343 -0.0021961767 -0.019338196
0.066565014 0.013184333 -0.036101334 -0.030625746 -0.029668393 0.03178646 -0.04242206 -0.046193447
-0.041644234 0.031504028 -0.025450466 0.045452483 -0.008997785 -0.017825587 0.027798366 0.049900305
0.040744435 -0.0588605 -0.06818956 -0.022987295 -0.039986778 0.04646141 0.0014126132 0.0096591925
-0.06955367 -0.057594817 0.07624094 0.019136917 0.053758048 -0.052349262 0.03270847 0.057350636
-0.06349529 0.035668887 0.010947114 -0.024083922 -0.05302897 -0.0733745 -0.042555787 0.008111354
0.031121952 -0.047526103 0.06371527 -0.056136068 0.009722823 -0.017143134 0.034570258 0.061981488
-0.056270964 0.07373109 -0.062237583 -0.03657595 0.021091819 0.0636265 0.049351703 0.069918655
0.0009273686 -0.015364733 0.035873428 0.028877143 -0.027958184 0.080856286 -0.027829532 -0.07249725
-0.011506844 0.0028950798 -0.05927568 -0.06670321 -0.01815726 0.046917696 -0.04743747 -0.016420871
-0.07658238 0.07896198 -0.053225122 0.027169922 0.0023549348 0.046897862 0.02459182 -0.030903554
0.058432903 -0.076232694 0.077065624 -0.08357854 -0.035250057 0.06435102 -0.014077606 0.009804047

bias f4 [16]
00000000: 3cfb 863d b5eb 9a3b 26c5 f2bc db3a 743c
00000010: 1c79 8abd 928d 95bd cae9 82bd 8f5e e1bc
00000020: ded0 bd3a b2f0 c2bd d260 cf3c fe9e 90bd
00000030: 6c9f 09bd a165 ba3b 79e9 cc3d a765 cabd
0.06590888 0.0047278055 -0.029635023 0.01490661 -0.06761381 -0.07302393 -0.06392248 -0.02751091
0.0014481803 -0.09518565 0.025314722 -0.07061575 -0.033599302 0.0056883846 0.10005469 -0.0988267

weight f4 [32, 32, 3, 3]
00000000: 75ab 0c3c e4b9 21bd e0c4 1c3d 5d0e 49bd
00000010: 0d48 8c3c 47c5 4dbc 6c2b 063d fd51 35bd
00000020: 7abe 5bbb db75 f73b e046 cc3c 42a2 cd3c
00000030: 3e38 c3bb 8cec ed3c 577e 49bd fd4b 023d
00000040: 0c3a c03b 0a3d 5fbd 1648 f03c b497 15bd
00000050: 09b8 213d ede7 44bd b40f 0cbd 7e3e 49bd
00000060: 4374 6ebd d905 03bd 6a0b 18bd 84bf a6bc
00000070: 29cb 66bc 905c 08bc bbd0 813c a8a3 3fbd
00000080: 18ae 0eba c2cf 03bc 1430 0dbc 6cb4 cbbb
00000090: 852a 503d e65a 233c e855 31bd 2e2e 1ebd
000000a0: 64d0 0bbc 554a c3bc 51ef 1ebd 150f 1e3d
000000b0: 85d1 d0bc 8ceb b03c ac95 0a3d abd0 b63a
000000c0: 004a 40bb 413d 96ba fb68 5cbd e881 09bc
000000d0: eebd 65bc d20e 6a3d d939 25bd a1b6 5cbd
000000e0: b4ae fb3a 5db7 50bd 733c 6c3d 3c6e 1d3d
000000f0: f7b1 6fbd c3af 14bd c610 83bb 42e0 ee3c
00000100: f993 d63c d76c 3d3c f58b 21bd 7f9e 3e3d
00000110: 14c0 6f3c 28a7 a33b 2057 e6bc 5cd7 323d
00000120: 6cdb 8a3c e02a 61bd 7e14 82bc e1b4 173d
00000130: 04fe 13bd b462 de3b 2fe0 1dbd 1a95 4e3d
00000140: 44a9 93bc ce77 24bd a527 6cbd 7d3e 1c3d
00000150: d528 323c 6770 c7b9 0f6e 9f3c 80ed 6c3c
00000160: 391d 433d 3a29 023d 6ad5 8ebc 2ba7 d53c
00000170: ed80 63bd 5b50 4bbd 63bc 12bd f51c abbc
00000180: 7580 0e3d 9053 493d c16e 0dbc ff61 11bc
00000190: 7115 d3bc b3df e53c 1925 713d 3e42 333c
000001a0: a623 99bc 8e63 58bc ed63 27bd 6227 01bd
000001b0: 010d 953b 3805 21bc 2d10 5d3b ad2f a53c
000001c0: bb03 3dbd 249b debc f03b 1dbd 52f9 413d
000001d0: 004d 4a3d 7338 6abd 86da 44bb aa10 0fbd
000001e0: 1612 65bb e4d7 8e3c 4618 bc3a 9623 04bd
000001f0: aa8c 76b8 76b1 49bd a2b7 d1bb 8d71 5e3d
00000200: 9d52 683d 6e48 47bd fe9b 07bd 71ab ce3c
00000210: 22ab 983c 517d ef3c 7538 2bbd fe42 5a3d
00000220: 690d 10bd 37e8 a0bc 5d38 5ebd e413 babb
00000230: dbbe 9b3b 6551 acbc 8be4 2d3d 969f 3ebd
00000240: c092 67bd acc6 1cbd fe23 113d 1344 2dbd
00000250: 9973 e1bc 9ca1 3e3d 9fb5 a0bb ec6b ac3c
00000260: 0dab b93c fe82 b23c 821d 733d 7358 623d
00000270: ef6d 493d 2fb7 3fbc 8f31 163d 8e37 5c3d
00000280: b947 e63b 8483 0e3d e34d 24bd 5594 08bd
00000290: 0c36 003c 3c78 87b9 10b5 03bd 8b18 cb3c
000002a0: 8439 52bd c462 0dbd 5ee8 61bd 6938 a63c
000002b0: a158 3c3d 7403 403d ba82 103a f0d9 193c
000002c0: eb35 53bd 9829 33bc f50d e8bc a203 1fbc
000002d0: e0cf 0b3d f380 683d 15dc 87bc 6a6a 62bd
000002e0: 93fe 783c ea62 dbbc e0c0 0e3c ed95 663c
000002f0: 93da debc 675e 063c be1b 58ba 7a16 42bd
00000300: 9285 42bc bc8f 7cbc a2e6 03bd 7db9 a4bc
00000310: 7b1b 0fbd 193b f13b c542 f03b 6eb2 2cbd
00000320: 0887 ceba 17be 5bbd 62ef 853c 6d06 24bd
00000330: a4c6 2ebd bb80 64bd 030a 663d 6e9d 92bc
00000340: 0a44 3dbd 798f 39bd 4568 9bbc c685 533d
00000350: 0850 5d3d 3e0f dd3c e4c5 1fbc 0e6e 36bd
00000360: 295b 5e3d 1dd6 6f3d b0f6 58bd 70b7 1e3d
00000370: fb9d 5d3d 63b4 babc 7edd 5e3d 58d8 2fbd
00000380: cc36 fa39 c3ea 52bd 842f 70bd 7d34 ec3c
00000390: a38c 6cbc 1df9 61bd 260e 113d 9cd9 48bd
000003a0: e890 823c cfad 4fbd 67eb 85bc b456 abbc
000003b0: 307c 63bd f6ea e43b dba6 153d 0e05 0139
000003c0: 771c 1dbd be53 1e3c f3e3 e5bc 3ed8 56bd
000003d0: 8123 353d 9994 0e3c 236d 0e3d 76c2 cdbc
000003e0: 3e60 f2bc c803 3a3d dec3 6e3d d83e 84bc
000003f0: 00d3 cd3c 0731 97bb a4f6 d53a 32b6 6a3b
0.0085858 -0.03948392 0.038273692 -0.049085964 0.0171242 -0.012559242 0.032756254 -0.044267643
-0.003353028 0.0075518913 0.02493614 0.025101785 -0.0059576323 0.029043458 -0.049192753 0.03181075
0.0058662947 -0.05450157 0.029331248 -0.03652163 0.03948215 -0.048072744 -0.034194663 -0.049131863
-0.058216345 -0.031988 -0.03712026 -0.020354994 -0.014086523 -0.00832285 0.0158466 -0.046786934
-0.0005442812 -0.008045139 -0.00861742 -0.0062165763 0.0508218 0.009970402 -0.043294817 -0.03861826
-0.008533571 -0.023839155 -0.03880245 0.038588602 -0.025490532 0.021596693 0.033834144 0.0013947686
-0.0029340982 -0.0011462347 -0.053811055 -0.0083927885 -0.014022334 0.05714304 -0.04033837 -0.053885106
0.0019201846 -0.05095612 0.057674836 0.038435206 -0.05851933 -0.036300432 -0.0039998023 0.029159669
0.026193606 0.011561594 -0.039440114 0.046537872 0.014633197 0.004994292 -0.028117716 0.043662414
0.016950332 -0.05497253 -0.015878912 0.037037734 -0.03613092 0.0067866687 -0.038543876 0.050435163
-0.018025048 -0.040153317 -0.057654995 0.03814553 0.010873993 -0.00038039984 0.01946166 0.014460921
0.04763529 0.031777598 -0.017435748 0.026080688 -0.055542875 -0.04963718 -0.03582419 -0.020887831
0.034790475 0.049151957 -0.008632363 -0.008873462 -0.02576706 0.02806077 0.05887327 0.010941086
-0.018693756 -0.013207329 -0.04086678 -0.0315317 0.0045486693 -0.009827904 0.0033731565 0.020164335
-0.046146136 -0.027173586 -0.03838724 0.04735691 0.04938984 -0.05718274 -0.0030037477 -0.034928
-0.0034953407 0.017436929 0.0014350496 -0.0322605 -5.8781974e-05 -0.049241506 -0.0064000646 0.05430751
0.05671941 -0.04865306 -0.03310775 0.025228234 0.01863629 0.02923456 -0.04180189 0.053286545
-0.03516904 -0.019641979 -0.05425297 -0.0056786407 0.0047529764 -0.021034906 0.042454284 -0.04653891
-0.056536436 -0.038275406 0.035434715 -0.04230125 -0.027520942 0.04654084 -0.0049044634 0.021047555
0.022664571 0.021790978 0.059354313 0.055260133 0.049177106 -0.011701389 0.036668357 0.05376392
0.007027593 0.03479339 -0.04011334 -0.033344585 0.007825386 -0.00025838788 -0.032155097 0.024791976
-0.051324382 -0.03451802 -0.055153243 0.02029057 0.04598296 0.046878293 0.0005512644 0.009390339
-0.051565092 -0.01093521 -0.028326968 -0.009705456 0.034133792 0.0567636 -0.016584435 -0.055277266
0.015197414 -0.026780564 0.008712977 0.014073831 -0.027203834 0.008201218 -0.000824388 -0.047384717
-0.011872666 -0.015415128 -0.03220237 -0.020107979 -0.034938317 0.0073617813 0.0073321783 -0.04216235
-0.0015756795 -0.05364808 0.016349498 -0.04004519 -0.042669907 -0.05578683 0.05616189 -0.017897334
-0.046207465 -0.04530284 -0.018970618 0.05164125 0.054031402 0.026984807 -0.009751771 -0.04453855
0.054286156 0.058553804 -0.052969635 0.03874916 0.05410574 -0.022791093 0.05441045 -0.04293093
0.00047724543 -0.051493417 -0.058639064 0.028833622 -0.014437827 -0.055169214 0.035413884 -0.049035653
0.015938237 -0.050702866 -0.0163476 -0.020915367 -0.055538356 0.0069860173 0.03653608 0.00012304282
-0.038357224 0.00966352 -0.028062796 -0.05245232 0.044223312 0.008702421 0.03477205 -0.02511714
-0.029586907 0.045413762 0.058292262 -0.016143247 0.025125027 -0.004613999 0.0016324115 0.0035814163

bias f4 [32]
00000000: 12f3 e93b 6aca 9fbc dd98 053c b4b8 2ebd
00000010: ff8b 7d3c 882b 1b3c 4610 f7bc 59fd 4f3d
00000020: eb3f 413d 9958 70bd cef6 86bc 1a7e e5bc
00000030: 4983 f1ba 233b febc 788d 893c 0558 27bd
00000040: a9b6 043d 4217 083d 0d8c 33bd e38f e83c
00000050: 6f06 073d 6e1d 57bb 8ab3 fcbc 2781 de3c
00000060: b51f 423c 7ed1 75bd a57d 15bd c941 4ebc
00000070: f02f 1abd b9f5 943c 23ee 533c c5ff 1ebd
0.007139572 -0.019505698 0.008154121 -0.042656615 0.015475272 0.009470828 -0.030159127 0.05077872
0.047180098 -0.058678243 -0.016475108 -0.028014231 -0.0018425967 -0.031034058 0.01679109 -0.040855426
0.03240076 0.033225305 -0.043834735 0.028388923 0.03296512 -0.0032823938 -0.03084733 0.027161194
0.01184838 -0.06001424 -0.036496777 -0.012588927 -0.037643373 0.018183576 0.012935194 -0.03881814

weight f4 [32, 32, 3, 3]
00000000: 6389 19bd e502 cabc a6e5 6b3d 2eca d4bc
00000010: 4120 ae3b 79f6 e33c 353d 6bbd 8ad5 24bd
00000020: 9faa 13bd 4b74 0e3d 6462 dbbc 460d f33c
00000030: 72ce 02bd dc7d 3d3d 265f 793b 6d10 03bd
00000040: 4d66 dc3c a6bb 053d 43f7 4f3d fc80 5c3d
00000050: fa5d f2bc d245 613d 8ea8 9b3b f3c0 153d
00000060: 8528 4f3d bdfe 75bc 0b88 e6bc 9eb1 0a3d
00000070: 96e9 64bd 52fd 5d3d d7d5 1dbd 2c12 5c3d
00000080: c487 b43b edb9 8ebc 3fb9 9bb9 68d6 1abd
00000090: 766f d23c c0a3 883c 8951 343d e186 6abc
000000a0: 7e29 dd3c 13a6 f9bc c027 b53c 8be7 253c
000000b0: 3a57 00bc 67ea 2e3d 9586 3a3c 385b 343c
000000c0: 8062 103a 05b3 89bd 4d3d c5bc b14d c7bc
000000d0: 30ba 55bd a7d0 25bd 61b2 b23b 43ac 07bc
000000e0: 3dc0 f5bc 1234 38bd d205 b33c d885 b3bc
000000f0: 2ea0 003d 125f 6dbd b630 be3c b3e8 6dbc
00000100: 13ca d63c ea43 ed3c a0a5 6f3d 747b d23b
00000110: 6696 70bc 7d9c 4c3d 6b28 66bd c313 33bc
00000120: f73d 383d e385 6e3d e9a3 173d f687 5cbd
00000130: 515a 22bc 15db ea3c 0441 7d3d cfe1 78bc
00000140: 5f57 7a3d 1b92 003d a9a7 4f3d 249c 783d
00000150: 397a e53b fa10 833d e4c5 6c3c 7a35 813b
00000160: 3d10 30bc 4eef 833c cd8f 8b3b a4b0 5a3a
00000170: 5e03 5abd 04a3 6fbd ff3d 21bd c7b4 7bbc
00000180: 4e8b 913c c1d5 823c 7a52 103d 2797 ad3c
00000190: c6ad 82bc 5fdc 393d ee04 25bc d6bc eabc
000001a0: 5fb7 973b e805 df3c 7fe7 14bd 4a97 f6bc
000001b0: 6553 30bd c1fd 76bd 2387 0d3d 4f90 36bd
000001c0: 1c61 6fbd 4681 033d a79f f03c 3acf a33c
000001d0: 58d8 073d ac56 713d 4176 dc3c e398 8e3d
000001e0: 0a96 35bc 5428 813b 939c 123d b8cb 453c
000001f0: 52df 8cbc 0628 103d a0cf 4a3d e6d2 6f3d
00000200: fdd2 4dbc a44a a33c 3860 ca3a 5f4e 65bd
00000210: 9f6f e8bc dda9 f9bc f8d9 4d3d 52d0 4dbd
00000220: a96d d7bc bb62 efbc 3323 94ba df8d 383d
00000230: 903e 58bd c5bf 893c c8cf 1c3d cc68 83bc
00000240: f4fe 5abd d521 1dbd 1209 2b3c 120a b63c
00000250: 6a6b fb3c 9e95 c73c 2bf7 a5bc 690e 303d
00000260: bb25 4bbd 060f 20bc 70df 173c 06fe 7dbc
00000270: a511 0e3d 09cc 3c3d f07d 66bd 675e e43c
00000280: d44e 92bc 713f cabc 64a4 ccbc c1ab ed3c
00000290: a190 4b3d cf24 27bd b651 f9bc 67f7 213d
000002a0: e3fc 06bc de68 bc3c 20fb 1abb b78b 57bd
000002b0: 71e4 f4bc 0603 0b3d 2431 693d 8d45 103d
000002c0: daf2 05bd 480e 11bd d23f 403d b26a 063d
000002d0: a6d2 24bc 5abc 82bd 18c5 70bd f400 383d
000002e0: dc3d 16bd ce83 243d d992 83bc 2241 923c
000002f0: 01b9 acbc 5ef2 a73b 99df 1abc 0c2b 2cbb
00000300: d2f7 583d 9b0e 8c3b 4924 21bd 7e65 053d
00000310: 7d52 093d 90d9 603d be58 863d 534c 873d
00000320: df39 e2bc 8a0c 66ba 6375 813a 69a4 1c3d
00000330: 9a22 803c 0523 f438 fb61 573d 15c2 c63a
00000340: 2eca a13c be37 2e3d 1252 84bd 5c75 4b3c
00000350: 76bb 29bc a944 67bd b59a 3f3d c317 953c
00000360: 496f 0fbd 7b20 033d cd05 0a3d 4b7a 5dbb
00000370: 3ca9 86bc 82ec cfbc 4803 efbc 2913 30bd
00000380: cd79 8b3c e0d0 2b3c 0858 52bc 679a d8bb
00000390: 6868 ebbc 480a 833c dd50 64bc b6d8 713d
000003a0: 3943 463d 59cd 843c 5861 df3c 4c03 33bc
000003b0: 2ac5 883c 4011 a23c 6afa 3f3d deff 88bc
000003c0: 4075 fb3c 21fd 523c 1c97 0b3c f35a 253c
000003d0: b4e5 3dbc f9a4 4bbd 55b6 2b3b 6318 123d
000003e0: c83a 3b3b 851f 4d3d 9868 47bc 232f a7bb
000003f0: f2a7 cf39 f13a ea3c 3e87 c93c aa21 38bd
-0.037484538 -0.024659583 0.057592057 -0.025975313 0.0053139036 0.027827488 -0.05743142 -0.04024271
-0.03605139 0.034778874 -0.026780315 0.029669415 -0.031935163 0.046262607 0.0038051098 -0.031998087
0.02690425 0.03264966 0.050772917 0.053833947 -0.029585827 0.054998226 0.004750318 0.036560964
0.05057575 -0.015014348 -0.028141042 0.033860795 -0.055886827 0.054196663 -0.03853401 0.053728268
0.0055093486 -0.01742264 -0.00029701923 -0.03780213 0.025687914 0.016679645 0.04402307 -0.014314384
0.026997324 -0.030474698 0.02211368 0.010126005 -0.007833296 0.042704012 0.011384626 0.011008076
0.00055078417 -0.067235984 -0.024077082 -0.024329038 -0.052179515 -0.04048219 0.0054533933 -0.0082808165
-0.029998893 -0.044971533 0.021853361 -0.021914408 0.03140276 -0.057951994 0.023216587 -0.014520812
0.026219403 0.028963048 0.05850756 0.006423408 -0.014684295 0.049953926 -0.05619089 -0.0109300045
0.04498097 0.058233153 0.03702155 -0.0538406 -0.009909228 0.02866892 0.06182958 -0.015190556
0.06111848 0.031389337 0.050697003 0.060695782 0.0070030955 0.063997224 0.014451478 0.0039431425
-0.010746059 0.01610532 0.0042590857 0.00083423615 -0.053225867 -0.058505073 -0.039365765 -0.015362925
0.017766621 0.015971066 0.035234906 0.02119024 -0.015952002 0.045376178 -0.010071976 -0.028654497
0.004630014 0.027224496 -0.036353584 -0.030101437 -0.04304828 -0.060300592 0.034552705 -0.044571217
-0.05844222 0.032105707 0.029373003 0.019996274 0.033165306 0.058920547 0.026911857 0.069627546
-0.011083135 0.003941575 0.035793852 0.012072496 -0.017196331 0.03519442 0.049514413 0.058550738
-0.012562511 0.019933052 0.0015440052 -0.055982944 -0.028373538 -0.030476505 0.0502567 -0.050247498
-0.026297407 -0.029221883 -0.0011301994 0.045057174 -0.05279404 0.016815076 0.038284093 -0.016041182
-0.0534658 -0.038362343 0.010439174 0.022221599 0.030690867 0.024363335 -0.02025946 0.042982493
-0.04959653 -0.009769207 0.00926958 -0.015502458 0.034684796 0.04609302 -0.056272447 0.027877046
-0.017859854 -0.024688454 -0.024980731 0.029012563 0.049698476 -0.040806588 -0.03043447 0.039542582
-0.008239004 0.022999223 -0.0023648217 -0.052623477 -0.029894086 0.03393843 0.05693163 0.03522258
-0.032702304 -0.03541401 0.046935864 0.032816596 -0.010059988 -0.063835815 -0.058781713 0.044922784
-0.036680087 0.04016476 -0.016061233 0.017853323 -0.02108431 0.005125328 -0.009452724 -0.0026270775
0.052970715 0.004274202 -0.039341245 0.032567494 0.033525933 0.054894984 0.06559895 0.066063546
-0.027615486 -0.0008775672 0.0009876903 0.03824273 0.0156415 0.000116413496 0.052583676 0.0015164042
0.019749727 0.04253363 -0.06460966 0.012418117 -0.010359636 -0.056461964 0.0467784 0.018199807
-0.03501824 0.032013398 0.03369694 -0.0033794816 -0.01643812 -0.02538133 -0.02917637 -0.042987023
0.017025853 0.010486811 -0.012838371 -0.006610203 -0.028736308 0.015996113 -0.013935295 0.059044562
0.048403952 0.016211199 0.027268097 -0.010926079 0.016695578 0.019783616 0.046869673 -0.01672357
0.030695558 0.012877733 0.008519914 0.010092485 -0.01159041 -0.049717877 0.0026201208 0.03566779
0.0028568972 0.050078887 -0.012170933 -0.0051020547 0.00039607246 0.028592559 0.024600621 -0.04495398

bias f4 [32]
00000000: 9a14 9cbd f6a6 4bbd 162a 07bd 6403 c63c
00000010: a403 06bb fdca 3abb bca6 99bd d4fc 14bc
00000020: da51 4b3a 3f9c 8abb 66b6 b6bd 0739 31bd
00000030: d5de c23b a3bd 78bc 62a4 e13b 46bd 4b3c
00000040: a832 cabc 59e4 893a ad92 763c 73fc 3ebd
00000050: b434 fe3c 0923 02bd 13de 1cbc 7a0d 583c
00000060: a943 7ebd b6d4 59bd e451 d5bb aba3 97bd
00000070: 92c7 7abd dd54 283d 02f7 74bd b529 0abd
-0.07621117 -0.049719773 -0.03299912 0.024171539 -0.0020448947 -0.0028502338 -0.07502505 -0.009093482
0.0007756032 -0.0042300518 -0.089215085 -0.043267276 0.005946974 -0.015181932 0.006886051 0.012435263
-0.024682358 0.0010520323 0.015049619 -0.046627473 0.03103099 -0.031771693 -0.009574431 0.013186807
-0.062076245 -0.053181373 -0.0065100063 -0.07404264 -0.06122548 0.041096557 -0.059805878 -0.03373118

weight f4 [2, 5408]
00000000: 861b 093c a839 12bd c5c6 cbbc 0f91 f2bc
00000010: 19ba 39bc 85f4 a5bc e977 b0bb 9ee5 aabc
00000020: 0163 bfbc dba9 80bc 208e 20bc d354 bdbb
00000030: 1174 3abb dff3 29bb 9bca 8abc 580f 66bd
00000040: 19ab 3fbc 3117 1cbd a858 00bd 69bc 2ebb
00000050: 824b 86bc e52f dbbc ad7b d23c 9873 1e3b
00000060: d095 5c3c c391 a23c a578 e23c 2e60 ad3a
00000070: a25d 6fbd 25ed 12bd 7331 21bd 43bf 22bd
00000080: b801 adbc df37 8dbc a353 c2bc 205f b2bb
00000090: da09 893b 66f6 db3c 8792 0abb 6297 273c
000000a0: 3182 12bd eea4 59bd f489 e0bc cdff b8bb
000000b0: 2859 5fbd 1506 cdbc 7c25 0a3d 879a 72bc
000000c0: 87c0 623c 0fa4 293c 16b0 473d 3aa6 bc3a
000000d0: c947 353c 4011 15bd 0bbf 0bbd 2520 acbc
000000e0: b97b 0e3c 2705 39bd 3a06 773c 5a60 ad3c
000000f0: 5ac0 84bb f6b8 a6bb 9dac 733a ba33 743d
00000100: ddd6 503a ba6a 73bb 2924 19bd 5562 d6bc
00000110: dad0 83bc 2fbc 03bd cc7e 17bd 7e89 9f3c
00000120: 2400 a73c 75ae 2a3c 07ac b3bb 5e3f 873c
00000130: e5fa ab3d ec00 333c f177 b6bc 9568 13bd
00000140: cc38 b4bc 4b66 d73c 5b85 64bd f9ac 82bc
00000150: bee2 063d 566a 9a3c 3731 163c 9aaa 3c3d
00000160: a751 8dbb d127 633d bfaa 853b 0889 dabc
00000170: 0071 e9bb 15d3 0cbd 08bd 033d bc5f 073c
00000180: 2443 a13c 5d4f bb3c 5ed2 a23c bdae 743c
00000190: 2c50 653d 2db7 903c 1ac1 733d 5ca2 4d3c
000001a0: 7185 1abd de25 a03c b6b5 a9bc c23e 3d3c
000001b0: 810b 503b 7b2d 343d 37a1 553c 9ec7 023d
000001c0: b416 003d faf8 423d 9b77 143d 1755 793d
000001d0: de73 ce3c 11f3 8fbc 490a b73c 4901 ad38
000001e0: a01b d63b a82f 90bc 6a3c 703c 402b 463c
000001f0: b6ca 5a3d 41aa 403d f4bb 2d3d e12e 033d
00000200: e7e3 fb3c 868e 833c baec a0bc 589f 24bc
00000210: f7d7 56bc 1fa6 293c cc5a d4ba 5721 8b3c
00000220: 5f94 123d e3a7 8d3d b7d5 db3c f764 8e3b
00000230: cb09 823d 5b1a 983c aa12 0a3d 087d acbc
00000240: 1991 bbbc f0d7 a1bc b535 213c c0a1 323b
00000250: 78e0 873b f39b 3e3d 9a5f f23c e8ae e83b
00000260: f374 d7bc 8d21 bd3c a948 d2bb 8ee4 fa3a
00000270: 5b42 13bd cfe0 84bc bd41 b4bb c2a9 ce3c
00000280: da51 c6bb 47bf 7e3c 3073 033d e1e6 ed3c
00000290: 0fdc a23c 50a3 273c bb32 0a3c a240 ce3b
000002a0: 1fb2 193c 1f41 d6bc 383b 87bc d57c 053c
000002b0: d5ab 8abc 37ac 23bc ee68 dfbb 6671 9dbb
000002c0: 6bc4 9e39 08f7 47bc 7861 60b9 764f 923c
000002d0: d385 383c cb81 3f3c 3925 9e3b adf9 b9bc
000002e0: c601 aabb 1f0c 8a3c ce6c f9bb 23d2 28bb
000002f0: 4393 2f3c fe05 1cbc 6ec6 043b 30a3 8d3c
00000300: 9820 a23c b819 513b 3dd2 fd3b 1587 2a3c
00000310: cf6c 35bc 4bfd 0bbd f461 a33c 3533 51bb
00000320: 470c 11bc 5856 543c 67d6 963c 6771 843c
00000330: c3dd c93b f522 943a 0ab4 d43b 4170 36bb
00000340: 0203 2e3d 029f 5abc cc38 3ebc e8b7 e13b
00000350: f949 0bbb 1a09 f0bb d928 e0ba 3d8b 543c
00000360: b5ee 403c 2334 513c 199d 5d3c ba01 b13c
00000370: 2582 e3bb 3e68 363d 0c54 9dbc 822a 93bc
00000380: f294 8d3c 640f 923c 254b 103c 5692 78bc
00000390: 3957 123d d78e 8dbb 9203 90ba a884 fe3c
000003a0: a215 e43c 4ab7 963b c496 153d 715f 16bc
000003b0: 2e89 9fbc da12 c53b d72d 823a b3a3 21bc
000003c0: 3d5d fbbb ceba 0e3c 046e 2a3c e202 0a3c
000003d0: 6224 a03c 7fdc 343d bdab fc38 7c90 bf3c
000003e0: c8aa 973c 97aa bdbb 8ba7 0e3d 7f1e e0bb
000003f0: 142e 24bc f828 f63b 9b73 683c e4e4 d7ba
0.0083683785 -0.035699517 -0.024875054 -0.029610185 -0.011335873 -0.020258198 -0.005385388 -0.020861443
-0.023362638 -0.015705993 -0.00979951 -0.005777934 -0.0028450529 -0.0025932712 -0.016942313 -0.056166977
-0.011698508 -0.038108055 -0.03133455 -0.0026662594 -0.016393427 -0.026756236 0.025693739 0.0024177786
0.013463452 0.019844895 0.027645418 0.0013227516 -0.058438905 -0.03587069 -0.0393538 -0.039733183
-0.021118984 -0.017238555 -0.023721522 -0.0054434687 0.0041820826 0.02685089 -0.0021144466 0.010228964
-0.03576869 -0.053135805 -0.027409531 -0.005645728 -0.054528385 -0.025027314 0.033727154 -0.01480735
0.013839847 0.010354056 0.048751913 0.0014392801 0.011064478 -0.036393404 -0.03411774 -0.021011421
0.00869649 -0.04517093 0.015077168 0.021164108 -0.0040512504 -0.005087967 0.0009295436 0.059619643
0.00079665874 -0.0037142471 -0.037388 -0.026169935 -0.0160908 -0.032161888 -0.036986157 0.019474741
0.02038581 0.01041757 -0.0054831537 0.016509708 0.08397464 0.010925513 -0.02227399 -0.03598841
-0.02199974 0.026293894 -0.05579124 -0.01595162 0.032931082 0.018849533 0.009167007 0.046061136
-0.0043127122 0.055457894 0.0040791924 -0.02667667 -0.0071240664 -0.03438099 0.032162696 0.008262571
0.019685335 0.022864992 0.019875702 0.014934239 0.05598466 0.01766547 0.059510328 0.0125509165
-0.037724916 0.019549306 -0.02071653 0.011550607 0.0031745138 0.043988686 0.013038925 0.03192865
0.03127165 0.047600724 0.036246877 0.060872164 0.025201734 -0.017571958 0.022343772 8.249522e-05
0.006534055 -0.01760085 0.014662841 0.012095273 0.053415976 0.047037367 0.042415574 0.03202713
0.03074832 0.016059171 -0.01964413 -0.010047756 -0.0131130135 0.010354548 -0.0016201376 0.016983671
0.03578603 0.069167875 0.026835306 0.004345532 0.06349524 0.018567255 0.033709206 -0.021055713
-0.022896336 -0.019756287 0.009839465 0.0027257055 0.004146632 0.046535444 0.029586602 0.0071009286
-0.026300883 0.023087287 -0.006417353 0.0019141601 -0.035951953 -0.016220478 -0.0055010007 0.025227431
-0.006052238 0.015548534 0.032092273 0.029040756 0.019880323 0.010231808 0.008434947 0.006294326
0.009380846 -0.026154099 -0.01650773 0.008147438 -0.016927639 -0.00998979 -0.0068179285 -0.004804778
0.0003028245 -0.012204893 -0.00021398615 0.017860156 0.011262375 0.01168866 0.0048262146 -0.022702063
-0.0051881997 0.016851483 -0.0076118475 -0.0025760017 0.010716262 -0.009522913 0.0020259875 0.017289728
0.019790933 0.0031906199 0.0077460096 0.010408183 -0.011073305 -0.034177106 0.019944169 -0.003192139
-0.008853025 0.012960039 0.018412782 0.016167356 0.0061604693 0.0011301922 0.006491189 -0.0027837905
0.042483337 -0.0133435745 -0.011610221 0.0068883784 -0.0021253808 -0.0073253037 -0.0017102017 0.01297265
0.011775662 0.012768778 0.0135262245 0.021607269 -0.0069430047 0.044533007 -0.019205116 -0.017964605
0.017282937 0.017829604 0.008806978 -0.015171608 0.035727713 -0.0043200064 -0.0010987392 0.031069115
0.027842347 0.0045994865 0.036520734 -0.009178028 -0.019474592 0.00601421 0.0009931874 -0.009865689
-0.007671027 0.00871153 0.010402206 0.008423539 0.019548599 0.044155594 0.00012048285 0.023384325
0.018514052 -0.005788158 0.03482775 -0.006839573 -0.0100207515 0.007512208 0.014187719 -0.0016471413

bias f4 [2]
00000000: 06f0 99bc 3837 45bb
-0.01879121 -0.0030092727
