digital_deal/idmodel.pth.tar (torch, 196155 bytes, 14 tensors)

conv1.weight f4 [16, 3, 5, 5]
000000 ce 33 6d bd de 33 dd 3c 1f b5 f3 bd d4 6e af bd
       -0.057910733 0.027002271 -0.118997805 -0.08566061
000010 05 f7 a1 bd 0b a5 97 3b f3 dd b7 3d c9 2e dc bc
       -0.07908443 0.004627829 0.0897788 -0.026877778
000020 c3 54 85 bd a6 74 a4 bb a5 77 cd 3d 61 1a d6 3d
       -0.06510308 -0.0050187884 0.10032586 0.1045425
000030 a0 41 e9 3c c3 82 ea bd c9 2a da bd 1b 01 d6 3d
       0.028473675 -0.11450722 -0.10652692 0.104494296
000040 c0 43 19 3e 9e fe e7 3c 4f 04 cc 3d a1 1c 8d bd
       0.14967251 0.028319653 0.09961759 -0.06890226
000050 a9 0b 38 bb 7a e7 28 3e 08 3f a7 3d 52 93 83 bd
       -0.0028083122 0.16494551 0.08166319 -0.064245835
000060 d6 49 0a 3e c9 09 90 bc f7 62 d1 bd 21 42 eb bd
       0.13504729 -0.01758279 -0.10223954 -0.114872225
000070 d9 e8 1c be 90 ae 36 bd 8f 6a 1d bd 89 66 f0 ba
       -0.153232 -0.04460007 -0.0384317 -0.0018341105
000080 63 ce 18 be 07 62 93 bd fd 4f 0e 3d 59 dd 0e 3d
       -0.1492248 -0.071964316 0.03474425 0.034879062
000090 4e 5e 49 3d 64 6f b7 bc 23 8b b8 bb 54 a9 be bd
       0.0491622 -0.022391982 -0.0056318208 -0.093096405
0000a0 44 98 47 bd b2 b1 9d bc ed ae a4 bd 17 c2 25 3d
       -0.048729196 -0.01924977 -0.08041177 0.0404683
0000b0 54 68 fc 3d af ba 27 bd 39 41 25 3d d0 95 64 ba
       0.123245865 -0.04094952 0.040345404 -0.00087198336
0000c0 bc 6a 3d 3d af a8 af bd 00 c1 ef bc 2b cf a7 3d
       0.046244368 -0.08577096 -0.029266834 0.08193811
0000d0 69 fb 0e bd a2 b0 35 3d 40 49 7f 3d df 97 ab 3c
       -0.034907732 0.044357903 0.062325716 0.020946441
0000e0 c1 b3 fb bc d8 31 63 bd ef ee cc bd e0 61 10 bd
       -0.030725362 -0.055467457 -0.100065105 -0.03524959
0000f0 16 dd 9d 3d 3a 47 e6 bc 36 2d a9 3d 6b 4e 3a 3b
       0.077081844 -0.028110135 0.082605764 0.0028428088
000100 50 2e c9 3d 27 16 0a 3d dc 9e 69 bd 77 a5 2b bc
       0.098232865 0.033712532 -0.057036266 -0.010476462
000110 05 1a 84 3d 19 3e 25 3d 57 e4 f3 3d 7c c8 53 bd
       0.06450275 0.040342424 0.11908787 -0.05170487
000120 d0 ff 97 3d 5e 27 f3 3d 37 62 e5 3d a7 83 11 3e
       0.07421839 0.11872743 0.112003736 0.14210378
000130 d3 d7 b1 3d 74 b4 9b 3d d8 b4 15 bd 17 63 50 bd
       0.08683743 0.07602778 -0.03654942 -0.05087575
000140 ae 22 ea 3d 28 31 cb 3c 6b d4 12 be 5c f4 8c bd
       0.11432396 0.024803713 -0.14338844 -0.06882545
000150 e6 e3 f4 bd 93 7c 04 3e ab f0 c0 3d 8a 4b 22 be
       -0.11957531 0.12938146 0.09420904 -0.15849128
000160 13 28 a1 bd 90 ed 0a be 86 21 02 3e 4a dd 85 3d
       -0.07868972 -0.13567185 0.127081 0.06536348
000170 00 e6 23 3d af 87 68 3c 92 7e d2 bd fc 2c a8 bd
       0.040014267 0.014192506 -0.102780476 -0.08211705
000180 00 2d c3 bd c5 80 ac 3d 17 a0 59 bd ab 82 94 3c
       -0.095300674 0.08422998 -0.05313119 0.018128714
000190 d0 1e 0a 3d 22 a7 e4 3d 80 73 93 3d 71 68 ee bd
       0.03372079 0.111646906 0.07199764 -0.11641014
0001a0 2a 4c 24 be cb 0d 05 3c da 44 8d bd 86 6f 24 be
       -0.1604468 0.008120964 -0.06897898 -0.16058168
0001b0 54 67 a5 bd b8 61 d0 bd 94 2f ce 3c 0f f3 f6 bd
       -0.08076349 -0.10174888 0.025169171 -0.120580785
0001c0 78 8f 57 bd 70 91 2f be 54 00 a1 bc 0a f4 ff bc
       -0.052627057 -0.17145324 -0.019653477 -0.031244297
0001d0 f3 68 6f 3d 07 1f 22 bc 49 9d f4 bd 9f b7 89 3d
       0.058449697 -0.009895093 -0.11944062 0.06724476
0001e0 64 cc c2 3d 34 4b 9c bd 77 b5 32 bc 70 2b 93 3d
       0.09511641 -0.07631531 -0.010907522 0.071860194
0001f0 bc 0e 61 3c 82 b3 d3 3d 0f ac 1a 3d c6 15 dc 3c
       0.013736423 0.10336973 0.037761744 0.026865851
000200 51 df 23 bc 22 61 b7 3d 00 d6 f7 3d ac 94 e3 3c
       -0.010001973 0.089540735 0.12101364 0.027780853
000210 eb 03 17 3d 9f f1 11 bd 3c 9d e0 3d 6f 19 74 3d
       0.03686897 -0.03563082 0.1096749 0.059594568
000220 f9 51 86 3c 48 09 66 ba 7b 44 b1 3d a9 ab 44 3c
       0.01639651 -0.0008775187 0.0865564 0.012003818
000230 34 14 2d bd bd 3d b5 bb 6b 2b d7 bb 59 0c 1f 39
       -0.042255595 -0.0055310414 -0.006566455 0.00015168021
000240 35 f4 b3 bc d7 81 33 3d f8 21 31 3d b7 d0 2e 3d
       -0.021967033 0.043824997 0.043245286 0.042679515
000250 0f a5 85 3d 38 d3 da 3c 11 f1 e9 3c 6b e9 d1 3d
       0.06525623 0.026712045 0.028557332 0.10249599
000260 07 b8 c4 bd 98 7f b7 3d 2a 0d bd 3c 08 bd 6a bd
       -0.09605413 0.089598835 0.023077566 -0.05730918
000270 0b 27 ea 3d b3 5a cb bd c8 86 85 bd a7 08 9f 3c
       0.11433228 -0.09929409 -0.06519848 0.019413305
000280 8c ae 98 3d bc 7c a8 3d 2a 1a 41 3d 4e ee c3 3d
       0.07455167 0.08226916 0.047144093 0.095669374
000290 a2 8d bf bd 33 44 24 3c 30 26 e7 3b 49 d6 89 bd
       -0.09353186 0.010026026 0.007054113 -0.06730325
0002a0 0c 29 cd bd 91 8c 59 3d 5a e2 08 3b 8f 54 a2 bd
       -0.10017595 0.05311257 0.002088687 -0.079262845
0002b0 51 c2 c6 bd 30 af c4 bd 9d 1c 51 bd b2 5c 1f bd
       -0.09705032 -0.09603727 -0.05105268 -0.03890676
0002c0 c6 d6 95 3d 3d 6e 9b 3d fa b3 a1 bc e0 3f e6 3b
       0.073163554 0.07589386 -0.01973914 0.0070266575
0002d0 8c ec c9 3d ac 9a 67 bd 3d fe 0b bc 68 88 96 bd
       0.09859571 -0.05654399 -0.008544502 -0.07350236
0002e0 20 9f cb bd c7 0d 4f bb ad 12 f3 bc a8 e3 b2 bd
       -0.0994246 -0.0031593905 -0.029671991 -0.08734828
0002f0 6e 87 70 3d 54 cf 9d bc 11 d4 5e bd 30 05 ff 3b
       0.058722906 -0.0192639 -0.05440146 0.007782601
000300 98 60 ad 3c ce bf e4 bd 48 8c 46 3d a7 32 3c 3d
       0.021164224 -0.11169396 0.048473626 0.045946743
000310 87 e3 83 bd e5 5b ed bc f6 21 12 bd 55 5f bf bd
       -0.06439882 -0.028974483 -0.03567692 -0.09344355
000320 73 b4 c3 3d 28 2b 72 bd 9f 08 e8 3d ef 5e b3 bd
       0.09555902 -0.05912319 0.11329769 -0.087583415
000330 ab 89 a3 bd ff ea ce bc 4c 6b 6e bd 58 53 d1 3d
       -0.079852425 -0.02525854 -0.058207795 0.10220975
000340 9a 06 83 3d 2c f9 38 3c 36 b5 89 3d a1 52 aa bc
       0.063977435 0.011289876 0.06724016 -0.020791354
000350 f3 7f c9 bd a2 7c aa 3d 53 e7 e2 bd 54 59 9b 3d
       -0.098388575 0.08324553 -0.11079278 0.07585397
000360 22 32 a2 3d c6 c1 49 bd 1e 41 80 3d c1 8f f9 3b
       0.07919718 -0.049257062 0.0626242 0.0076160138
000370 0f 21 43 bd f5 d0 e1 bc 89 66 b8 3d 43 b4 9b bc
       -0.04763895 -0.027565459 0.09003932 -0.019006854
000380 1f cc 8b bc 14 f7 64 bd 1e 0b e7 bd d9 96 88 3c
       -0.017065106 -0.055899695 -0.11281417 0.016673492
000390 38 d1 3d 3c a3 e4 ea 3d 3b 84 22 3d 4f dd 0b 3d
       0.011585526 0.1146939 0.039676886 0.034146603
0003a0 11 70 c9 3d b8 93 da 3d 2a ab 59 3d a2 ab 35 bd
       0.09835828 0.10672706 0.05314175 -0.044353135
0003b0 4b 4c 8b 3d 0c fb 23 bc 41 10 51 bd f1 8e 56 3d
       0.06801661 -0.010008585 -0.05104089 0.052382413
0003c0 d8 03 e4 bd b7 d7 01 be 64 6a ad 3d 86 ab cb 3d
       -0.11133546 -0.12679945 0.08467558 0.09944825
0003d0 60 7d b8 3d c3 f8 d2 bd 48 08 a7 bd 89 0f 74 bc
       0.090082884 -0.10301354 -0.081558764 -0.014896282
0003e0 32 5d 48 3b 13 a7 d4 bd d3 ff 0f bc 00 4f 82 bd
       0.0030573127 -0.103834294 -0.008789021 -0.06362724
0003f0 2b 43 d5 3c 35 ff d5 3d 06 fd 97 3b 45 82 e0 3c
       0.026033005 0.104490675 0.004638317 0.027405867

conv1.bias f4 [16]
000000 b1 1b 97 bb cf 4e 5d bd 9d ff 1a 3d 06 1f a0 bd
       -0.0046114554 -0.054030236 0.037841428 -0.07818417
000010 91 01 bd bd 05 37 e5 3d 06 a6 45 bd 5e 01 03 bd
       -0.092288144 0.11192135 -0.048254035 -0.031983726
000020 a6 a9 9f bd b8 55 2a 3d 0e 45 8f 3c c0 2b f6 3d
       -0.0779603 0.041585654 0.017488983 0.120200634
000030 88 9f bf 3d 24 98 78 bd 08 02 8f bd 10 64 36 3c
       0.093566 -0.060691968 -0.06982809 0.011132255

conv2.weight f4 [32, 16, 5, 5]
000000 9a d6 0f 3d d9 42 27 3d 74 4f 1d bd 24 f0 0e bc
       0.03511677 0.040835235 -0.03840585 -0.008724246
000010 fd 84 ec bb 62 6f ee bc 8e c7 9c bc be 8c ba bb
       -0.007218002 -0.029105846 -0.019138124 -0.0056930473
000020 1a 90 42 3d 40 23 aa 3c 6e 4e f7 3c 8a 72 e8 bc
       0.047500707 0.020768762 0.030188765 -0.028374929
000030 65 19 36 39 c0 23 69 bb 27 9b d0 3b a5 57 82 bc
       0.00017366333 -0.0035574287 0.006366152 -0.015910933
000040 38 4f 87 bb ec 64 40 3b e2 4d e7 bc f1 f9 ea bc
       -0.0041293167 0.002935703 -0.02823538 -0.028683634
000050 07 85 5d 3c 14 fb 9a bc dc 27 9d bc 6e a7 fe 3c
       0.013520486 -0.018918552 -0.019184045 0.031085696
000060 6c e3 20 3d 52 6e fd 3c d7 44 89 bc 36 e8 3d bc
       0.039279386 0.030936394 -0.016756458 -0.011591008
000070 c0 37 23 3d cd 11 08 3d ec 99 4d 3c ec b0 0e bc
       0.03984809 0.0332201 0.012548905 -0.008709174
000080 0b 9c 2e bd d8 37 8e bc 17 19 64 ba 45 eb 1a bb
       -0.042629283 -0.017360613 -0.00087012484 -0.0023638767
000090 1a 74 54 3c 02 7f b1 bb 00 da 91 3c 67 f2 03 bd
       0.012967134 -0.005416752 0.017804146 -0.032213595
0000a0 94 d5 dd bc 12 36 2b 3d 33 71 ff bc 94 db 1b bd
       -0.027079381 0.041799612 -0.031181907 -0.038051203
0000b0 c4 3e 13 3d c8 9f 10 bd f9 c3 c0 3c 44 38 82 bb
       0.03594853 -0.03530863 0.023530947 -0.0039739925
0000c0 a7 da 28 bc 1d f6 19 bd c4 f6 1a 3d c5 a7 3d bd
       -0.010306037 -0.037588228 0.03783299 -0.046302576
0000d0 73 ac 01 3d d8 26 53 3c f6 a2 a5 bc 52 0e 8c bb
       0.0316586 0.012887679 -0.020219307 -0.004274168
0000e0 99 eb da bc 89 6f 06 bd 55 e6 30 3c 4d e7 e0 bc
       -0.02672367 -0.032821212 0.010797103 -0.027454043
0000f0 af db ea bc 45 45 38 3d 29 fd 98 3c 76 a2 89 bb
       -0.028669206 0.044987936 0.018675404 -0.004200275
000100 b1 f4 ff bc 96 c8 2b 3d 78 b0 11 bd 50 bc af bc
       -0.031244608 0.04193934 -0.035568684 -0.0214521
000110 4e f6 ed bb de 80 90 bc 4c 32 2c bd 36 84 20 3d
       -0.007262028 -0.017639574 -0.042040154 0.039188586
000120 9f ef d9 bc 0f 4f 48 bd 4c f2 7a bc 86 97 27 3d
       -0.026603518 -0.04890352 -0.015316557 0.04091599
000130 d1 18 bf 3c 2c 19 f6 38 31 13 10 3d 8e cd 5d bc
       0.023327263 0.00011734883 0.035174552 -0.013537778
000140 48 ef c9 3c 85 34 d2 bb 3c 61 f2 3c 8a 89 2c 3d
       0.024650231 -0.006414952 0.02958738 0.042123355
000150 95 88 36 3d 68 4d 1a 3d 85 31 a0 3c 18 bd c3 3b
       0.04456385 0.037671477 0.019554863 0.0059734695
000160 1b e7 9d 3c 0e cd 05 bc b9 b3 61 3c 55 28 1c bd
       0.019275239 -0.008166565 0.013775759 -0.0381244
000170 f4 fa 97 bb 2c 39 e7 3c 9d f9 09 bd d6 c9 55 3c
       -0.0046380702 0.028225504 -0.033685315 0.01304861
000180 04 85 dc 3c 07 77 db 3c ff 33 98 3c c0 fa 36 3d
       0.026918896 0.026790155 0.018579481 0.044672728
000190 a4 47 3d bc 8a 1c f3 3c 4d 51 da bc 87 f5 40 3c
       -0.011552725 0.029676694 -0.026650095 0.011777288
0001a0 3f 54 4e 3d 78 4a 74 bc b2 66 bb 3b 75 92 04 3d
       0.050373312 -0.014910333 0.0057190293 0.032366235
0001b0 56 88 04 3c d9 be f4 3c 48 9d b4 bc 8a 94 4b 3d
       0.008089146 0.02987616 -0.022047654 0.049702205
0001c0 15 df 11 bd 7e 94 58 3c 21 bf 39 bd e9 e5 13 bd
       -0.03561314 0.013218997 -0.04534829 -0.03610793
0001d0 20 d4 1c 3d dc a3 0f 3d 24 2e d5 3b 0d 3c 0e bd
       0.038288236 0.035068378 0.0065057445 -0.034725238
0001e0 31 1c 0e bd 84 93 17 3d 19 42 94 3c 69 31 69 bc
       -0.034694854 0.037005916 0.018097924 -0.014232972
0001f0 9d 44 26 3b c5 0a 08 3c 2a cd 2d bd 16 25 44 3d
       0.0025370487 0.008303349 -0.042431988 0.04788693
000200 53 15 3f bd 34 88 95 bc 4c 68 31 3d 98 9f 8b 3c
       -0.046651196 -0.018253423 0.043312356 0.017043874
000210 78 c5 8d bc 9f e5 03 bd 40 00 52 bd 91 06 6b bc
       -0.017306075 -0.032201406 -0.05126977 -0.014344827
000220 82 b1 b5 bb 49 1e 77 3c 4d 8a ce bc bd 6f f8 3c
       -0.005544842 0.015082904 -0.025212431 0.030326718
000230 40 e0 bb 3c ba 7b 15 bc 8b 79 ee 3c ea c4 ba bc
       0.02293408 -0.009123737 0.02911069 -0.022798974
000240 af 56 db 3c f5 68 20 bd de 0c 35 3a c1 3b 28 bd
       0.026774732 -0.039162595 0.00069065194 -0.04107261
000250 b2 de 64 bc 58 90 47 bd fb e6 96 bc 2e e3 39 3c
       -0.01396911 -0.04872164 -0.018420687 0.011345668
000260 16 d6 b9 3c 42 e3 2a bd 79 62 16 3d c3 95 9f 3c
       0.022685092 -0.041720636 0.036715005 0.019480592
000270 09 ae 91 3c a6 ee 1b bd 63 f3 6d bb 1a 6c 2f bd
       0.017783182 -0.03806939 -0.00363084 -0.042827703
000280 ef 90 b3 3b 68 75 2b 3c 33 85 3e bd fa a5 4c 3d
       0.005479924 0.010465004 -0.046513747 0.049962975
000290 72 75 9d bb 8c ba 99 bc 09 d3 2d bc f0 ec 0b 3d
       -0.0048052603 -0.01876571 -0.010609397 0.034161508
0002a0 50 ec 61 3c 48 3e d3 3c a9 0b d0 3c 4a cd 98 bc
       0.013789251 0.025786534 0.025396185 -0.018652577
0002b0 6e 5a 99 3b a7 c2 e4 3c 5c b5 fc 3c 36 21 29 bd
       0.0046799695 0.027924849 0.030848198 -0.041291438
0002c0 f5 7c 8e 3a 76 f1 e7 bb 27 ff 09 3d 51 b1 90 bc
       0.001087098 -0.007078345 0.033690598 -0.017662676
0002d0 e7 44 4a bd 35 d5 11 3d 02 95 2c 3b dc 20 85 39
       -0.049382117 0.03560372 0.0026333933 0.0002539222
0002e0 95 33 26 3c bb 0f 04 bd 00 ee c6 3c 14 be 49 3c
       0.010144134 -0.032241564 0.02428341 0.012313385
0002f0 19 41 4b bd 96 8c c4 bc 06 db 03 3d 45 af 3c bd
       -0.04962263 -0.023992818 0.0321913 -0.046065588
000300 14 11 1f bd 18 56 4a bd 05 66 b9 3c 16 ef f7 bc
       -0.038834646 -0.04939851 0.022631655 -0.030265372
000310 49 01 b1 3c ca 76 d1 3c 94 dd 0f bd 78 85 bb 3c
       0.021607058 0.025569338 -0.035123423 0.022890791
000320 83 72 d8 3c 5c f7 4a 3b 2a 7c 84 bc 8f c3 49 b9
       0.026421791 0.0030970192 -0.016172487 -0.00019241705
000330 ca 26 0f 3d 2f 21 05 3d 34 40 57 3c 82 5b 65 bc
       0.0349491 0.03250235 0.013137866 -0.013998868
000340 7f dd 36 3c b5 51 c3 b9 7d 69 f2 bc 92 fd 29 3c
       0.011161207 -0.00037254175 -0.029591316 0.010375397
000350 3a c2 88 bc 4a 28 3a bd e7 45 53 3d 1a 78 2a bd
       -0.016694177 -0.04544858 0.051580336 -0.041618444
000360 89 99 fb 3c 51 e4 e6 bc ea ae 14 3d ef d4 0b bd
       0.03071286 -0.028185042 0.036299624 -0.034138616
000370 be 9e e5 bc 1d a0 ce 3c e2 5c 9c 3c 6f 3f 25 bd
       -0.028029796 0.025222832 0.019087259 -0.040343698
000380 0e db 68 bc 0f 23 19 3d 55 94 45 3d 1f 45 2b bd
       -0.014212383 0.03738695 0.048237164 -0.041813966
000390 14 1b d9 3b fa d7 93 bc e4 03 3c 3d 40 cc 8c 3c
       0.0066255424 -0.018047322 0.045902148 0.017187238
0003a0 0e 02 2f 3d 97 c3 d9 bc dc a4 cb 3b 41 1b a4 3c
       0.04272657 -0.026582522 0.006214721 0.020032527
0003b0 98 34 0d 3d 22 fc 3c 3d db 3b 17 bd 1c 26 c3 3c
       0.034473985 0.04613889 -0.036922317 0.023821883
0003c0 2d 03 48 bc 02 9b 91 3c 6c ee 4c bd da 1c 63 bd
       -0.012207788 0.017774109 -0.050032064 -0.055447437
0003d0 93 45 73 bd 66 90 62 bc 30 9a 4b 3c 9f ea 1b bb
       -0.059392523 -0.013828373 0.012426898 -0.0023790968
0003e0 a2 6b 98 3c 62 94 14 bd 00 47 1c bd d4 6d 44 3d
       0.01860601 -0.03627432 -0.03815365 0.047956303
0003f0 78 b0 b6 bc 64 d8 0e 3d 89 a5 e3 3c 9c 01 86 ba
       -0.022300944 0.034874335 0.027788894 -0.0010223868

conv2.bias f4 [32]
000000 f6 5b f7 3c 09 ec 5e bd 25 9c 26 bd 7b a2 48 bc
       0.030195218 -0.05442432 -0.040676255 -0.01224577
000010 d4 34 dc 3c 0c fe 2e 3d 27 bd 3c 3b 9c 1c 1e bd
       0.02688066 0.042722747 0.0028799267 -0.038601503
000020 3c 40 13 bc 94 62 17 39 52 27 c2 3c cd ff e9 bc
       -0.008987483 0.00014437205 0.02370039 -0.028564358
000030 74 57 2d bd c8 36 58 bd 63 a1 47 bd 5b f7 26 3d
       -0.04231973 -0.05278662 -0.048737895 0.04076324
000040 56 97 0b bd ab 2f 2d bc b7 63 06 bd 1f e4 86 3b
       -0.034079872 -0.010570447 -0.03280994 0.0041165496
000050 a1 62 49 bd b3 9e 13 bb 69 4d 3e bd 36 08 5e bd
       -0.049166325 -0.0022525012 -0.046460543 -0.05420705
000060 26 3e 01 bd aa da 52 bb 37 aa 2f bd 6a 68 7c bc
       -0.03155341 -0.003217379 -0.04288694 -0.015405754
000070 b0 cf 23 bd 6b b6 55 39 d2 0c 83 bd c1 0e ed bb
       -0.039992988 0.00020381219 -0.0639893 -0.007234425

rblock1.conv1.weight f4 [16, 16, 3, 3]
000000 fd 33 ef bc 01 3b 0f bd 38 0a a0 3d 24 01 31 bd
       -0.029199595 -0.03496838 0.07814449 -0.04321398
000010 3d 2b cd 3d 51 66 db 3c dc 51 7a 3d 8e 21 8e bc
       0.10018013 0.026782187 0.061113223 -0.017349984
000020 7b ec c8 3d 80 43 ba 3d ee a7 81 3a 00 26 56 bd
       0.0981073 0.09094906 0.0009891966 -0.052282333
000030 85 c2 02 3d ba b8 a5 bb 4c c6 af 3d 2c 23 a9 3c
       0.03192379 -0.0050574215 0.08582744 0.020646654
000040 61 8f 35 3d 1c e7 a8 3d 40 08 ef 3a 7d 81 97 3c
       0.04432619 0.082472056 0.0018236712 0.018494362
000050 40 d3 7a 3c 74 1a 44 bd 36 21 0f bc d2 10 c5 bc
       0.015309155 -0.04787679 -0.008735945 -0.024055872
000060 0d 5f 93 b9 90 6e 00 bd 1d 43 4d 3c e0 0f a4 3d
       -0.00028108843 -0.03135544 0.012528208 0.080108404
000070 2e 8b 94 bd 55 64 69 bd 83 85 48 3d f2 74 8f bd
       -0.07253109 -0.05698045 0.04895545 -0.070047274
000080 60 56 25 bc d1 7f 8d 3c eb d2 0d bd b1 d0 11 bd
       -0.010091394 0.017272862 -0.034624975 -0.035599414
000090 64 22 80 3d 9d 87 c9 3d 8d 0e b9 39 66 29 b2 3d
       0.062565595 0.09840319 0.0003529679 0.086993024
0000a0 9c 80 c2 3d db 0a 97 bc 7e 70 19 3d fa 01 91 bd
       0.094971865 -0.018437793 0.037460797 -0.07080455
0000b0 f4 ea a8 bd 84 db 7b bc cf e0 9e bc d5 92 a1 bc
       -0.08247939 -0.015372161 -0.019394306 -0.019723335
0000c0 58 65 d7 bc 5a ff b6 3d 0e a4 15 3d 19 69 7e 3d
       -0.026293442 0.08935423 0.036533408 0.062111948
0000d0 06 6d c2 3c c6 1d 97 3d 5d 7f 84 bd 36 7d a0 bd
       0.023733627 0.07378726 -0.06469605 -0.07836382
0000e0 27 9b 13 3d 95 29 99 bd c5 26 40 3d d2 9c 1a 3d
       0.036036637 -0.07478634 0.046911974 0.03774721
0000f0 38 57 2f 3d c6 87 9e 3d 5c c7 51 bd 26 00 a5 bb
       0.042807788 0.077407405 -0.051215515 -0.005035418
000100 cd 7b f5 3b f6 e0 9d bd 5b 76 29 bd 4c cd 7c bd
       0.007491565 -0.077089235 -0.04137264 -0.061719224
000110 65 10 47 3d 2d 3f a0 3d 5a a9 6e bc 18 82 94 3d
       0.04859962 0.0782455 -0.014566744 0.07251376
000120 64 b7 58 3d c0 81 d6 3c 0a 13 1d bd cb d8 9a 3d
       0.05290927 0.026184916 -0.038348235 0.07560881
000130 f9 ce 42 bd 7f d9 bb 3d 49 a8 0a 3d 2c 68 88 bd
       -0.047560666 0.091723435 0.033851895 -0.06660494
000140 5a 83 8f 3c ea 26 59 3c 17 96 a8 bd fd 61 1f bd
       0.017518688 0.013253907 -0.08231752 -0.03891181
000150 18 c7 c5 3d f3 ca 0a 3d 36 ca 9d bc 24 b4 de 3d
       0.09657115 0.033884954 -0.01926146 0.10874203
000160 7e af f4 3c f9 50 22 3b 0f 41 97 bd ba 0c a4 bd
       0.029868837 0.0024767502 -0.07385456 -0.0801024
000170 33 ce 36 bd 15 23 07 bd 49 d0 08 bd 00 69 99 bc
       -0.04463024 -0.03299244 -0.03340176 -0.018726826
000180 b7 08 60 3d c6 44 13 bd 89 47 8c 3c 76 6f aa 3d
       0.05469581 -0.03595426 0.017123954 0.08322041
000190 13 45 ac 3b 5a d4 16 3d c7 77 93 3d c9 f6 e7 bc
       0.0052572577 0.036823608 0.0720058 -0.028315919
0001a0 31 ea 9e bd c3 8f 7b 3d 0e be 51 bd 94 02 0e bd
       -0.07759512 0.0614164 -0.05120664 -0.034670427
0001b0 49 71 f3 bc be 80 2a 3d 59 cf 5a bc cb c7 38 3b
       -0.029717105 0.041626684 -0.0133551 0.0028195258
0001c0 64 e2 c5 3d e9 56 b1 3d 0f f1 74 bc 10 77 84 3d
       0.09662321 0.08659155 -0.014950051 0.06468022
0001d0 db ed 73 3d a3 ae 25 bd 52 09 75 3d 87 91 83 bd
       0.05955301 -0.04044975 0.05982334 -0.064242415
0001e0 aa 72 a1 bd 6b 6d c1 bd b9 27 93 bd d0 90 95 bd
       -0.078831986 -0.09444698 -0.07185311 -0.073030114
0001f0 ea 8c 4f bd 81 ff 48 bb ec 78 a5 bd e2 ec a3 bd
       -0.050671495 -0.003066987 -0.08079705 -0.08004166
000200 d0 e6 ce bc 43 86 35 bd cb b0 85 3d 29 44 08 3c
       -0.025256544 -0.044317495 0.06527861 0.008317032
000210 63 0e 3f 3d 2c 14 83 3d 22 a2 51 bd 79 5d 9e 3d
       0.04664458 0.06400332 -0.051180013 0.07732672
000220 f0 9f 85 3d 9e 14 96 bd b8 40 92 3d b4 5f 60 3d
       0.06524646 -0.07328151 0.0714125 0.05477877
000230 a4 c5 d6 3c 49 4d 07 3d 08 d1 5d 3b 5f 9a d4 bc
       0.02621729 0.03303269 0.0033846516 -0.025952516
000240 73 8d 8f 3d 24 2c 3e bc 74 3c 20 3c d4 b2 79 3d
       0.07009401 -0.011607204 0.009780038 0.06096156
000250 36 49 ac 3c e3 af 01 3d 2f 6b 63 3d e4 13 1f 3d
       0.021031003 0.03166188 0.05552214 0.03883733
000260 f8 ef 0d 3d 33 2d 30 bc 8d 78 15 3d 5a b6 26 3d
       0.03465268 -0.010752964 0.03649192 0.040701248
000270 6c 37 d9 3d da b8 ca 3d 26 3d d7 ba ee 00 bc 3d
       0.10606274 0.09898539 -0.0016421422 0.09179865
000280 fa 99 6e 3d 1a 8b 34 bc 8f 72 92 3d 50 64 92 bd
       0.058252312 -0.0110194925 0.071507566 -0.07148039
000290 b5 28 29 3c 87 68 b5 bc b2 ef 09 bd ec 96 3b 3b
       0.010324647 -0.02214457 -0.033675857 0.0028623892
0002a0 c0 4d f4 bc 35 40 4d bd 30 37 6b 3c 2d 34 0c 3b
       -0.02982223 -0.05011006 0.014356419 0.0021393404
0002b0 83 38 54 bc 05 f8 6b bb 95 c1 85 3d 38 8d 67 bd
       -0.012952927 -0.0036005985 0.065310635 -0.05653116
0002c0 42 8a 15 bd f2 68 96 3d 26 5f 31 bd 6a 30 04 3d
       -0.036508806 0.073442355 -0.04330363 0.032272734
0002d0 27 d6 d4 3c 5b 49 76 3d 0c 32 a2 bc 3d d7 d3 bc
       0.025981022 0.06012855 -0.019799255 -0.02585947
0002e0 5a 93 e4 3c 77 5f b2 bd fa f3 0d 3d ed 50 db 3c
       0.027902294 -0.08709615 0.034656502 0.026771987
0002f0 a2 1e a2 bd 4d bc 1e bd 35 30 07 bd 7e 6f d0 3a
       -0.07915999 -0.038753796 -0.03300496 0.0015902368
000300 1e 54 ac bb 25 d1 70 3d 3c de 1e bd ab 1d e1 3d
       -0.005259051 0.058793206 -0.038786158 0.10991987
000310 bf 61 1d 3d 0c 38 1d 3d e4 df 62 bd 32 52 9d 3d
       0.038423296 0.03838353 -0.0553893 0.07681693
000320 06 2c 86 3b 35 44 a2 bb 28 04 77 3d ec 0c 1a bc
       0.0040946035 -0.0049519786 0.060306698 -0.009402495
000330 b6 34 1b bd a3 78 59 3d 5e 7f 21 3d 56 ca 4f bd
       -0.037892066 0.053093564 0.039428107 -0.050730072
000340 d0 f5 98 bd 8d 01 d2 3d 30 35 bf bc a3 0d 9f bd
       -0.0746876 0.10254202 -0.023340791 -0.07766273
000350 9c 35 f0 bc 79 16 d8 3d 3c 15 66 bb 46 ca 34 3d
       -0.029322438 0.10551161 -0.0035107872 0.044138215
000360 ae 4f fe 3c 51 6b 3b 3b e4 0e 33 bd ea 9b 85 3d
       0.031043854 0.00285979 -0.043715373 0.06523879
000370 f8 38 f6 3c f5 b0 85 3d 80 a4 8c 3d 88 7e 2d bc
       0.030056462 0.065278925 0.068673134 -0.010589249
000380 60 94 64 3d 81 bb 7f 3c 0f 42 4e 3d 7e 78 5e 3d
       0.055805564 0.015608669 0.050355967 0.05431413
000390 9e bc 18 bd 21 d8 be 3c 14 ad 96 3d 9d bc 9a bd
       -0.037289254 0.023296418 0.07357231 -0.075555064
0003a0 d9 e4 82 bc 87 b4 09 bd c5 3e 1b bd 90 90 22 bd
       -0.015978264 -0.03361943 -0.03790166 -0.039688647
0003b0 7d 7e 9a bc 37 0a 4c bd 47 79 c0 3a 62 99 77 3d
       -0.018859142 -0.04981443 0.0014684581 0.06044901
0003c0 63 dc 31 3b f2 a9 50 3b 75 b4 04 3c b8 c2 39 3d
       0.0027139417 0.0031839577 0.008099665 0.045351714
0003d0 75 10 c2 3d d5 4f 89 bd 6b f9 83 3d 8a 61 1e bd
       0.09475795 -0.0670468 0.06444057 -0.03866724
0003e0 7d 3d aa bd c5 ed 2c bd 84 33 5f bb 3c 6c 00 3d
       -0.08312509 -0.042218942 -0.0034057805 0.03135322
0003f0 c2 e6 6f bd 31 1d c1 3b ab 63 fa 3c bf cb 98 3d
       -0.058569677 0.0058933725 0.030565104 0.074607365

rblock1.conv1.bias f4 [16]
000000 42 e6 d9 bc 43 44 4a bd 02 1a 13 bb fe 28 74 3d
       -0.026599053 -0.049381506 -0.0022445922 0.059609406
000010 f0 77 91 bd fa 34 69 3d 05 6c 36 3b 10 96 a5 bd
       -0.071029544 0.056935288 0.002783538 -0.08085263
000020 2a 62 93 3c e5 c2 5a bd e3 60 9e 3d fe da 42 bd
       0.017991144 -0.053408522 0.077333234 -0.04757213
000030 c2 cd 8b bb fc 3c 4a bd 89 e9 3a bc 1c d8 a5 3d
       -0.0042664716 -0.049374565 -0.011408218 0.0809786

rblock1.conv2.weight f4 [16, 16, 3, 3]
000000 55 84 09 3c 44 ba 1f bd 3c 9f 3d 3d 68 e1 90 3d
       0.008393367 -0.038995996 0.046294436 0.07074243
000010 d3 4b 90 3d 43 53 3a bc 7e c3 c8 3d 39 c2 9f 3c
       0.07045712 -0.01137239 0.09802912 0.019501792
000020 86 2e ea 3c f3 fb 78 bc 03 8c e8 3c 0e a7 94 3d
       0.028586637 -0.015196788 0.028387075 0.07258426
000030 d2 94 af 3d 69 6b 2e 3d 43 53 76 3d 85 f5 5d bd
       0.08573307 0.042582903 0.060138 -0.054189224
000040 2f 54 2e bd 6c 74 fe bc 03 09 18 bd b2 a1 67 bd
       -0.042560752 -0.031061374 -0.03711797 -0.05655069
000050 02 3e 1d 3d c5 1e 6c 3d a9 de 4b 3d 8a 91 e7 3b
       0.038389213 0.05764653 0.049772892 0.00706691
000060 fa 96 77 bd 38 18 8c 3d 0f b6 0e bc a0 ad 49 3d
       -0.060446717 0.06840557 -0.008710398 0.049237847
000070 8d b0 02 bd 2b 74 2b 3d 06 66 02 bd dc c0 aa bc
       -0.031906653 0.041858833 -0.03183558 -0.020843916
000080 e5 3e 43 3d a5 30 5e 3d 6d 10 8c 3d 3a e3 97 3d
       0.047667403 0.05424561 0.068390705 0.07416387
000090 de 42 d3 bc 67 67 92 3d 58 dd 8b bc 32 1c 00 bd
       -0.02578872 0.07148629 -0.017073318 -0.03127689
0000a0 cf b4 ca 3c f8 82 dd bc d4 91 a9 3c 96 ac 2a 3d
       0.02474442 -0.02703999 0.02069942 0.041668497
0000b0 63 53 96 3d 6f bd 16 3d f9 2d 9d bd 75 d1 a4 bd
       0.073401235 0.03680175 -0.07674784 -0.08047763
0000c0 a3 87 05 bd c6 5f 9a bd 35 22 5f 3d 6d fc df 3c
       -0.032600056 -0.075377986 0.05447598 0.027342046
0000d0 e9 15 7c 3b d2 cf 58 3d 47 53 39 bd c3 f5 b3 3b
       0.0038465208 0.052932568 -0.045245435 0.0054919436
0000e0 e1 c3 3b bd 50 3d 7d 3d b2 cc 46 bd 38 b2 9b 3d
       -0.0458411 0.06182605 -0.048535056 0.07602352
0000f0 39 b7 89 3c 98 8d 01 3d 8e 60 30 3d 8a c2 ca 3c
       0.016811 0.031629175 0.04306083 0.024750967
000100 15 c8 3e 3b ab ec 99 bc 6b db a3 3d 7b 79 5e 3d
       0.0029110957 -0.01878961 0.08000835 0.05431507
000110 a1 32 2d 3d e1 8f ac 3c 49 95 5a 3d 3d d6 2e 3d
       0.04228461 0.0210647 0.053365026 0.042684782
000120 fa 0b 3f 3d 21 8e 1d 3d 2c cd 9d 3c 05 bb 09 3d
       0.04664228 0.038465623 0.019262873 0.03362562
000130 0d e7 b1 3d f7 0b 3b bd 76 6e 32 3c d8 d0 cc bc
       0.086866476 -0.045665707 0.010890594 -0.025001928
000140 86 ae e5 3b b5 a2 81 3d 5d 65 30 3d 33 f4 6c 3d
       0.00700933 0.06329862 0.043065418 0.057850074
000150 71 16 80 3d 4b 66 32 bd 2f da 14 3d 10 07 93 3d
       0.0625428 -0.043554585 0.03634089 0.071790814
000160 d3 d9 d7 3c 1b a6 9b 3c 72 bc d3 bb bb b2 f4 bc
       0.026348984 0.019000104 -0.0064616734 -0.029870382
000170 e9 7a 9f 3d 40 c8 5a bd 3a 12 02 3d 38 98 1f 3d
       0.07787115 -0.05341363 0.031755663 0.038963526
000180 34 98 76 bd 14 cc a8 bc 1d 63 9c bd 80 d0 73 3d
       -0.060203746 -0.020605125 -0.07636092 0.059525013
000190 26 c7 99 bb 1d 04 92 bd 8e c1 60 bd b8 81 8c 3c
       -0.00469293 -0.07129691 -0.054872088 0.017151698
0001a0 63 cd 18 bc 9a 17 39 3d 8d cb 9a 3d 55 14 0b bd
       -0.009326312 0.045188524 0.075583555 -0.033954937
0001b0 2a 9a 83 bc 9d 12 83 bd 9b 19 8f bd 53 ee 3f bb
       -0.016064722 -0.064000346 -0.06987306 -0.002928634
0001c0 3f 0a 94 3c 3d 85 35 bd 70 7f aa 3d be 81 44 bd
       0.018071292 -0.04431652 0.08325088 -0.047975294
0001d0 2b d3 97 3b 01 3a fc ba fa e0 bb 3c 77 6a 58 3d
       0.0046333275 -0.0019243361 0.022934426 0.052835908
0001e0 da 4c c3 bd ae ec a9 bd dd f1 56 bd 0b c0 69 3b
       -0.09536143 -0.08297096 -0.052476753 0.0035667445
0001f0 10 72 a1 bd 02 69 65 3c 4a be 02 bd 8c 6f a0 bc
       -0.07883084 0.014002087 -0.031919755 -0.01958444
000200 9a a4 78 bc 30 36 aa bd 5f 66 7d 3d 0d ea 9c 3d
       -0.015175963 -0.08311117 0.061865207 0.07661829
000210 93 5e a0 3d 22 f1 0a 3d 79 dd 86 3d a9 07 6e 3c
       0.078305386 0.03392137 0.06585211 0.0145281935
000220 e8 60 68 3c 30 b7 87 bc 85 d5 93 3d 1a 52 83 3d
       0.0141832605 -0.016566843 0.0721846 0.06412144
000230 ce 49 f8 3c 59 a2 98 bd cb b4 a8 bd 2e cb b6 bd
       0.03030863 -0.0745284 -0.082376085 -0.08925472
000240 ce 26 1c bd 9a e1 07 3d 7e 99 8a 3d 27 86 26 3d
       -0.038122945 0.033174135 0.067675576 0.04065528
000250 a9 56 20 3d 7a 6a 89 bc 05 d8 ff bc 32 01 82 3d
       0.039145146 -0.016774405 -0.031230936 0.06347884
000260 03 1b 89 3d 26 59 08 ba 6e 08 a5 3d cd a6 97 3c
       0.06694605 -0.00052012724 0.080582485 0.018512154
000270 14 73 b4 bb 0d 72 90 3d 7c f6 d2 3d 91 0d c2 bc
       -0.0055068824 0.070530035 0.103009194 -0.02368811
000280 0a c1 8b 3d 2a ad c7 3b 98 25 74 3c 2a a7 7a 3d
       0.06823929 0.006093641 0.014901541 0.061194576
000290 04 e9 00 3d b4 e8 15 3d 50 95 09 bd 49 eb 8f bd
       0.03147222 0.036598876 -0.03358966 -0.07027299
0002a0 c8 76 6d bd 34 40 a1 3d 7d 0c 13 3d fc 34 ac bd
       -0.057974607 0.07873574 0.03590058 -0.084085435
0002b0 33 07 6a bc 88 cd 96 3d 6f b4 92 bd 5f a4 1d bc
       -0.014283943 0.07363421 -0.07163321 -0.009621709
0002c0 65 b6 96 3d 97 80 77 3c a0 72 f2 3c 9f 1d a2 bd
       0.07359008 0.015106342 0.029595673 -0.07915806
0002d0 c4 ea 98 bd 34 6c 57 3d 15 ea a4 3d 5b ed 99 bc
       -0.07466653 0.052593425 0.0805246 -0.018789938
0002e0 9d 55 48 bc 35 37 98 3d 9c 4b e5 bc 3d 29 9b 3d
       -0.012227443 0.07432405 -0.027990155 0.07576225
0002f0 54 79 85 bd d5 3a 9e bc ff 1f 7e 3c 81 15 8a bd
       -0.06517282 -0.019315163 0.015510558 -0.06742383
000300 92 89 3a 3d ef ac 58 3d 75 87 19 3c 63 b9 ef 3c
       0.045541354 0.052899297 0.009370674 0.029263204
000310 99 e3 2d bd b0 4c a4 bd d2 1f 67 bd 71 a1 01 bc
       -0.042453382 -0.080224395 -0.05642683 -0.007912026
000320 ea 29 c9 3c 4e 90 c5 bb ee 31 89 bd 07 b2 d7 bc
       0.024556119 -0.0060291653 -0.066989765 -0.026330007
000330 71 38 8b bd 52 e9 e0 bc 4c e8 4d 3d a0 e9 e3 bc
       -0.06797875 -0.027455006 0.050270364 -0.027821362
000340 94 2f 5e bd e8 5f a9 3d 8d ae 40 bd 19 4e 32 bd
       -0.054244593 0.08270246 -0.047041465 -0.04353151
000350 04 dc 93 bd e1 e3 a5 bd a1 4e 8d bd 45 bd 84 bd
       -0.07219699 -0.08100105 -0.06899763 -0.06481413
000360 16 46 96 bd 2f 83 89 bd 25 cb 52 bd 87 10 51 bd
       -0.073375866 -0.067144744 -0.051463265 -0.051041152
000370 19 4e c6 3c 8c 38 4d bd 90 79 b7 3d f8 e7 98 3a
       0.024207162 -0.050102755 0.08958733 0.0011665812
000380 4d 56 a5 3d 34 18 81 3c c0 f6 7d bd bf b8 15 3d
       0.08073101 0.015758611 -0.062002897 0.03655314
000390 bd 58 98 bd d6 a2 55 3c a4 fb a1 bd 40 0a 29 3d
       -0.074388005 0.013039311 -0.07909325 0.04126954
0003a0 a8 77 48 bd 15 e1 1b 3c f1 9b 6b 3d c2 bf 57 3d
       -0.048942238 0.009514113 0.057521764 0.05267311
0003b0 19 af 9a bd 51 e3 36 3d 7f 07 01 bd 4d 60 14 bd
       -0.075529285 0.04465038 -0.03150129 -0.036224652
0003c0 ed e4 9c 3d 8e 47 ed bb bb 05 75 bd 40 aa 2f bd
       0.07660852 -0.007241196 -0.059819918 -0.042886972
0003d0 19 7e 65 3d c0 52 67 bd 45 c6 57 3c eb 89 53 3b
       0.05602846 -0.0564754 0.01316983 0.003227825
0003e0 e7 7b 96 3d da 75 c4 bc 50 1c f6 3c 54 3c 8a bd
       0.07347851 -0.023981977 0.030042797 -0.06749788
0003f0 dd f4 45 3d b7 eb 00 3d 1d b1 1b 3c 5e a4 09 bd
       0.048329223 0.031474795 0.009502676 -0.03360402

rblock1.conv2.bias f4 [16]
000000 cf 0f 1c 3d 89 4c 2c bd 40 72 1c bd c7 7a c8 bc
       0.038101014 -0.042065177 -0.038194895 -0.024472607
000010 63 79 9f bd d2 35 70 bd e6 e7 ff bc e3 18 02 bd
       -0.077868246 -0.058645077 -0.031238507 -0.031762015
000020 d5 27 5b bd d6 80 04 bb 05 6e 4d bd b8 d6 bf 3b
       -0.053504784 -0.0020218394 -0.05015375 0.005854454
000030 1b 5f 8a bc 06 5e 23 bd 55 b4 e3 3c 7a a9 af 3c
       -0.016891053 -0.03988459 0.02779595 0.021443117

rblock2.conv1.weight f4 [32, 32, 3, 3]
000000 4f 1a e8 bb 32 a3 03 3d 24 23 60 3d 19 bb 63 bc
       -0.0070832144 0.032138057 0.054721013 -0.013899588
000010 f6 c0 35 3d 32 be a6 bc 32 0d 37 bc 4e 3f 70 bd
       0.044373475 -0.020354364 -0.01117258 -0.058654122
000020 88 55 fe bc 42 5e 2a bd 69 ee 21 3d 9a e7 23 3d
       -0.031046644 -0.041593798 0.039534006 0.040015794
000030 2c d4 31 3d 66 a9 33 bd d7 67 38 3b 5b 50 3c 3d
       0.043415233 -0.043862723 0.0028138065 0.04597507
000040 57 e3 7b 3d 82 2d a7 3c 80 45 1d bd 0b ae 82 3d
       0.061496105 0.020407442 -0.03839636 0.06380852
000050 a1 88 30 3d 53 4e 81 bc d3 d9 3d 3d cc a5 22 3d
       0.04309905 -0.015784418 0.04635031 0.039708897
000060 cf 39 4f bd 03 7b ae 3c e4 8d 53 3d 9b 43 79 3d
       -0.05059224 0.021298891 0.05164899 0.06085549
000070 53 d3 1e bd 4b 25 41 3c 14 d3 d5 3c 37 f5 46 3d
       -0.038775753 0.0117886765 0.026101626 0.0485737
000080 73 20 0d ba 58 fb 54 bc ca 4f 57 3d a3 6b 0d 3d
       -0.00053835585 -0.012999378 0.052566327 0.03452648
000090 40 25 2e 3d be da 6c 3d 82 53 3c ba 5d 5a 56 bd
       0.042515993 0.057825796 -0.00071840745 -0.05233227
0000a0 5b 50 0e 3c 87 f6 6c bd 02 32 52 3d 7c 70 0f 3d
       0.00868615 -0.057852294 0.051317222 0.035019383
0000b0 12 85 fd bb a6 4c 3d bc d2 9c 7f bc d1 86 1a 3d
       -0.0077368105 -0.011553919 -0.015601354 0.037726227
0000c0 92 44 d9 3c 89 83 3d bd 95 12 72 bc 9a 7b 41 3d
       0.026521955 -0.04626802 -0.014774938 0.047237016
0000d0 5a a5 da 3c 47 4d be 3c ee 08 ac bc 3f bf b4 3c
       0.026690174 0.023230208 -0.021000352 0.02206385
0000e0 c3 2e 03 3d c1 a1 dc bc e5 30 1b 3d 50 2f 54 bd
       0.032027017 -0.026932599 0.037888426 -0.051802933
0000f0 ea 32 1e 3d 9f 27 18 bd 13 49 ed bc 75 8e 3d bd
       0.038622774 -0.03714716 -0.028965509 -0.046278436
000100 67 04 6a 3b 64 b7 2b 3d 32 d1 7c 3c ec a7 f6 bb
       0.003570819 0.04192294 0.015430735 -0.007527342
000110 9e 72 d4 3c 48 12 15 bc 9d 75 70 3c d1 92 79 3b
       0.02593356 -0.009098597 0.014676479 0.0038081894
000120 37 3c 73 3d 80 56 24 3d 66 ac 62 bd 61 e6 6f bd
       0.059383597 0.040121555 -0.055340193 -0.058569316
000130 9a aa c5 3c 38 28 6d 3c 39 eb 35 bd 4b 48 30 3d
       0.0241292 0.014474921 -0.04441378 0.043037694
000140 60 f7 26 3d fb 88 54 3c c2 2f eb bc 76 bd 6c bd
       0.04076326 0.012972112 -0.028709296 -0.05779787
000150 a6 41 ac 3b 61 10 50 bd 36 5e 4b bd 47 45 4b 3c
       0.0052568493 -0.05079687 -0.049650393 0.012406654
000160 52 b5 23 3c 37 60 3e 3d 80 25 f5 bb 9e 77 28 3d
       0.009991961 0.046478476 -0.007481277 0.0411297
000170 3a ef c2 bc 18 58 2e 3c f4 5a 57 3c 35 3c 97 3a
       -0.023795713 0.01064112 0.0131442435 0.0011538329
000180 1c 15 48 ba a1 05 d8 3c 38 76 5c 3d cb a2 0f bd
       -0.000763254 0.026369872 0.05382368 -0.03506736
000190 59 5e e9 3a 2f 3c 27 bd 63 da 4e bd f3 ad 18 bd
       0.0017804607 -0.04082888 -0.05050124 -0.037275266
0001a0 ef 12 3e bd 92 73 db 3b c9 25 11 3d fa fa f0 bb
       -0.046404775 0.0066971267 0.035436425 -0.0073541375
0001b0 b3 b6 1b bd 22 0a 8d ba 77 9a b7 3c b9 6a 39 3c
       -0.038016032 -0.0010760466 0.022412522 0.011316949
0001c0 70 b6 0f 3a 91 8b 6c 3c 09 97 ca 3c 55 fa ec 39
       0.00054822024 0.014437572 0.024730222 0.0004519994
0001d0 4b 03 85 3c 5d d6 42 bd 94 d9 b2 3c c7 08 68 3d
       0.016236922 -0.047567714 0.021832265 0.056648996
0001e0 3c cd 2f 3c ec e7 9c 3c 2f 01 63 3d 10 45 68 bd
       0.010730084 0.019153558 0.05542105 -0.056706488
0001f0 3b 49 45 3d 79 02 66 bd 73 07 e1 bb 1f 6b 5c 3c
       0.04816554 -0.0561547 -0.006867343 0.013453274
000200 9b cc 3d bc c7 6e ed 3c 44 1b 2e bd 13 94 9e 3b
       -0.011584426 0.028983487 -0.04250647 0.004839429
000210 17 bd ac bc 64 a3 10 3d ff 0b 04 bd ab 22 30 bd
       -0.021086259 0.03531207 -0.032238003 -0.043001812
000220 92 ff 09 bd be 98 c3 bc 4f 8b 38 bd 6e b0 d7 bc
       -0.033690996 -0.023876544 -0.04505473 -0.026329245
000230 57 0f 8c 3c 8f a5 18 3b 63 0c c5 bc 16 c4 fa 3c
       0.017097158 0.002329204 -0.024053758 0.03061108
000240 e5 70 d9 bc 66 a7 64 bd 32 37 55 3d f4 1f 11 bd
       -0.02654309 -0.055823706 0.05205459 -0.035430863
000250 f6 57 ce 3c 19 43 9e bb 48 99 3c bd 21 f0 39 3d
       0.025188427 -0.004829776 -0.046044618 0.04539502
000260 86 1e b8 3b 5d 81 27 bc 9b 9d 3c 3d 22 cc 22 3d
       0.005618873 -0.010223714 0.04604874 0.039745457
000270 90 6b 28 3d bb 74 25 3d 96 60 00 bd a2 14 b3 bc
       0.041118205 0.040394526 -0.03134211 -0.021860424
000280 06 90 29 bd 84 19 16 3c ea dc 31 bd 1c 5d 2f bd
       -0.041397117 0.009161357 -0.04342357 -0.042813405
000290 40 46 94 3a d2 9c 72 bd 12 e6 04 bd 9d a7 11 3d
       0.001131244 -0.059231587 -0.032445975 0.03556024
0002a0 0d 30 75 bc 9c ad 19 bd 0a af 4f bd 7c b2 64 3d
       -0.0149650695 -0.037519082 -0.05070404 0.05583428
0002b0 e5 57 00 bd 74 96 00 bd bf e3 54 3c 50 e7 2a 3d
       -0.031333823 -0.031393483 0.012993752 0.041724503
0002c0 33 a8 89 bc 86 27 6a bd f5 9a 8e bd 14 ab f8 3c
       -0.016803836 -0.0571666 -0.069631495 0.030355014
0002d0 22 bd 50 bd f4 c5 50 3d 6a 2c c7 3c 4c 4a 4a bd
       -0.05096162 0.050970033 0.02431317 -0.04938726
0002e0 d3 3e 8b 3c 64 b2 df bc 6d a0 b2 bc de 11 42 3d
       0.01699773 -0.027306743 -0.021805013 0.04738032
0002f0 19 da 02 bd eb 07 51 3d e9 09 1f 3b a4 ce 0b bd
       -0.031946275 0.05103294 0.0024267382 -0.034132615
000300 11 44 7d 3d 14 e3 2e 3b 31 22 4c bd 40 e1 03 bd
       0.06183249 0.0026685642 -0.049837295 -0.032197237
000310 a8 a6 94 3a 28 81 05 bc 5f 60 c4 3c 67 02 3c bd
       0.0011341171 -0.008148469 0.023971735 -0.04590073
000320 03 c4 0e 3d 5f df 76 3d 6a 07 4b 3d 8d e8 ab ba
       0.0348549 0.060271617 0.049567617 -0.001311557
000330 d8 30 9f 3c f7 41 b4 3c 60 48 df bc bc 92 76 bc
       0.01943247 0.02200411 -0.02725619 -0.015049633
000340 cf cc 08 3d 81 54 6c bd d9 bc 75 bb 25 42 2b bc
       0.033398446 -0.057697777 -0.0037496595 -0.010452782
000350 89 a5 56 3d 8f ac a6 3c 12 92 8c bc f8 e3 46 bd
       0.05240396 0.020345954 -0.017159496 -0.04855725
000360 74 55 2a bd 02 e4 24 bd 75 02 96 3c fe 57 6f 3c
       -0.0415854 -0.040256508 0.018311718 0.014608381
000370 b8 70 fe 3c 92 dc f8 b9 69 07 a6 bc a0 05 41 bd
       0.031059608 -0.00047466584 -0.020267205 -0.047124505
000380 5a cb 5e bd 62 fa 40 3d b9 52 37 bd a6 bc 98 bc
       -0.05439315 0.047113784 -0.044756625 -0.018644642
000390 98 43 ee 3b 4b 63 39 bd 08 23 bd 3a d8 37 45 bd
       0.0072712414 -0.04526071 0.0014429996 -0.04814896
0003a0 8a ec 03 3d f7 7b 48 bd d7 80 40 bc b6 ad 17 bc
       0.032208003 -0.048946347 -0.011749468 -0.0092577245
0003b0 04 ba 46 bd a6 72 ff 3b 61 39 5e 3c 92 fe bb bc
       -0.048517242 0.0077956496 0.013563485 -0.022948537
0003c0 d9 6c 5c 3d cb 37 b2 bb 21 53 3d 3d 82 ce b3 ba
       0.053814743 -0.00543878 0.046221856 -0.001371816
0003d0 92 5a f7 bb c0 9c 77 3c 69 8f 5e 3d 87 5b c5 3c
       -0.0075486386 0.015113056 0.054335985 0.024091495
0003e0 97 b8 55 3c 5e 70 3a bd d5 ab 77 bc c6 65 ce bc
       0.013044498 -0.045517318 -0.015116652 -0.025195014
0003f0 85 60 ef 3b d1 25 46 3b 77 c6 26 3d a3 1a 12 bc
       0.007305207 0.0030234943 0.040716615 -0.0089174835

rblock2.conv1.bias f4 [32]
000000 68 68 4b 3a 6c 3b 62 3d b0 fc 05 bd 82 6e c8 3c
       0.0007759393 0.05523245 -0.032711685 0.024466757
000010 8c 30 79 3d 41 b1 56 3d 81 b4 0e bd 2b 48 17 3d
       0.060837314 0.052415136 -0.03484011 0.03693406
000020 91 e4 2c bd bc b3 47 bc d5 86 76 3d 8e 77 b1 bb
       -0.042210165 -0.012188848 0.06018718 -0.0054158634
000030 81 55 74 3d 63 db 5a 3d c3 8e e1 3c d7 8e 1d 3c
       0.059651855 0.05343188 0.027533894 0.009616575
000040 24 9e 13 bd c6 d2 90 bc 1e 77 3c bd 65 b9 2e bd
       -0.036039487 -0.01767863 -0.046012037 -0.042657275
000050 05 4a ec 3b ed a9 35 3c 6a b5 55 3d a8 9f 7a bc
       0.0072109723 0.011087877 0.052174963 -0.015296854
000060 1f 4f e1 bb 6c f4 e7 bc 38 4f 01 3d ff 59 bf 3c
       -0.006875887 -0.028314792 0.03156969 0.023358343
000070 46 fb 18 3d 75 39 5c bd 1d 05 b8 3c 15 7c 38 bd
       0.037349008 -0.053765733 0.022463376 -0.04504021

rblock2.conv2.weight f4 [32, 32, 3, 3]
000000 03 c3 fe bc ee 63 13 3d 2e bc 68 3b 1f 60 54 bd
       -0.031098848 0.035983972 0.0035512554 -0.05184948
000010 0b cd 01 3d 98 d0 e8 bc cf 10 89 3b 09 03 21 bd
       0.031689685 -0.028419778 0.004182912 -0.039309535
000020 82 cc 24 3d d3 54 12 3c 2c 46 24 bd 07 ff 2e 3d
       0.040234096 0.0089313565 -0.040105984 0.04272368
000030 c8 4a 28 bd dc 08 9d 3b 80 09 40 bd ac c0 45 3c
       -0.041086942 0.004792316 -0.04688406 0.012069862
000040 2e f0 9c bc 3e 58 a5 bc cf bc 0b bb d0 89 a1 3a
       -0.019157495 -0.020183679 -0.0021322255 0.0012324397
000050 04 0c 31 3d 16 cc c2 ba 54 a4 2e bd 61 18 9f bc
       0.04322435 -0.0014861848 -0.042637184 -0.019420804
000060 4c d8 60 bd 0e ae 50 3d 74 29 35 3d b2 5b d4 3c
       -0.054893777 0.05094724 0.044228986 0.02592263
000070 89 36 64 bd 32 d6 02 bb 19 39 3a 3d 2e 09 41 3c
       -0.05571607 -0.0019964096 0.04546461 0.011781974
000080 e7 1f 59 3d d7 a1 da bc 67 b7 da bb 55 ea cb bc
       0.05300894 -0.0266885 -0.0066746953 -0.024892012
000090 68 98 58 bd f1 9c 31 3d f6 9b 5b bd 3d 27 21 3d
       -0.05287972 0.04336256 -0.053615533 0.03934406
0000a0 5e f4 0b 3d 90 fa d1 bc 42 88 38 bc 8d 57 3f bd
       0.034168594 -0.025632173 -0.011262955 -0.046714354
0000b0 89 a0 fd bc b8 26 31 3d 1c cd ef 3b de 05 2b bd
       -0.030960338 0.043249816 0.007318152 -0.041753642
0000c0 a2 b9 0f bd 59 29 eb 3c ad 2d 6b bd 76 7e 11 3d
       -0.035089143 0.02870624 -0.057416607 0.035520993
0000d0 67 02 2f bd b1 6a 59 bc 7b d5 50 3c 57 31 d1 bc
       -0.0427269 -0.013270066 0.01274621 -0.025536222
0000e0 0e cd 6f bc 98 07 a2 bc 20 45 72 3d 2b e9 0a 3d
       -0.014636291 -0.019779012 0.059147954 0.033913773
0000f0 43 18 1f 3d ca b9 57 3c 0e 8b 49 bc 37 e8 99 bc
       0.038841497 0.013166854 -0.01230122 -0.018787486
000100 8c f7 af bc 0a 25 9a bc 3e 7f 63 3d ef 41 50 3d
       -0.021480344 -0.01881649 0.05554127 0.05084413
000110 41 33 ba bc 8e 09 07 3d 30 98 3b 3d cd 79 5f bd
       -0.022729518 0.032968096 0.045799434 -0.054559518
000120 6b 55 bc 3c 7b d5 64 3d 1f 02 74 bc a9 14 a2 bc
       0.02298995 0.055867653 -0.014893084 -0.019785242
000130 68 63 50 3d fd 00 16 bb de 57 93 3c b4 24 28 3d
       0.05087605 -0.0022888773 0.017986234 0.041050628
000140 40 ac 55 3d 55 83 7f bc a1 08 4e bd bc 23 2e 3c
       0.052166224 -0.015595277 -0.050301198 0.010628637
000150 d1 b3 56 bd 67 d7 1e 3c 51 a4 88 3c 06 90 19 3d
       -0.05241758 0.009694911 0.016679915 0.037490867
000160 ac 96 0d 3c 85 58 36 3c 8a f5 21 bd 70 fd ae 3b
       0.00864188 0.011129503 -0.039540805 0.0053402707
000170 a4 7a 61 3d 12 a7 5b bd ab 68 fa 3c 6c 8a c2 bc
       0.0550486 -0.053626128 0.030567488 -0.023747645
000180 c5 ec 32 3c c3 16 24 3d 63 58 03 3b ef 1f 09 bc
       0.010920708 0.04006077 0.0020041696 -0.00836943
000190 a6 58 27 3d 5e 20 25 bd 4f 72 ea bc a8 43 50 bc
       0.040856026 -0.04031407 -0.02861896 -0.012711443
0001a0 89 5f 37 3b 6b 5d 5d bd 5f af b9 3c d3 f7 7c 3c
       0.0027980527 -0.05404417 0.022666631 0.015439945
0001b0 80 0a a0 3c a7 58 3a bd 1d db 23 3d e4 88 26 bd
       0.019536257 -0.0454947 0.040003885 -0.040657893
0001c0 02 11 65 bd 87 e9 0a 3c a8 84 62 3d 26 f7 63 3c
       -0.055924423 0.008478529 0.055302292 0.013913905
0001d0 49 ac 5b bc 64 c9 4c bd f2 d3 4b bd 9c 4d 5a 3d
       -0.013407775 -0.04999675 -0.049762674 0.05329667
0001e0 82 d0 a6 3c 7a 42 c2 3c d4 e7 39 3d 01 e5 bf bc
       0.020363096 0.02371334 0.045387104 -0.023424627
0001f0 4e b4 51 bc 08 13 c1 bc 9d 78 30 3b d7 fd dd bb
       -0.012799336 -0.023568645 0.002692736 -0.006774645
000200 e8 34 2f bd 4c ee 0a bd 23 60 31 bd e9 d7 49 3d
       -0.042775065 -0.033918664 -0.043304574 0.049278174
000210 b5 21 3f 3d 32 31 aa 3c 9b cc 3c bc 2b a0 07 bd
       0.046663005 0.020775411 -0.011523391 -0.033111732
000220 4f 54 8c 3b 52 e3 c1 3c 6a 84 59 bd 12 f1 19 bd
       0.0042825113 0.023667965 -0.053104796 -0.03758342
000230 b0 f6 4a 3d cd 15 26 bd 65 2e 9b 3c aa 2b 21 bd
       0.049551666 -0.040548135 0.018943021 -0.039348282
000240 51 46 3a 3d e9 ea 82 3b b1 8d 34 3c 40 1e 3b bd
       0.045477215 0.0039952886 0.01102011 -0.045683146
000250 48 af 52 3c 78 2f 38 3d 17 86 0a bc 4a fd 1d bd
       0.012859173 0.044967145 -0.008454821 -0.038571633
000260 7d c6 af 3c 5c d9 74 3c f4 64 45 3d a0 5e 5e 3d
       0.021456951 0.014944401 0.04819198 0.05428946
000270 b0 35 44 3d 1c 22 68 bb 88 df de 3b 29 54 2b bd
       0.047902763 -0.0035420721 0.0068015493 -0.04182831
000280 35 52 2c 3c c2 3a d9 3c b7 93 40 3d 4a 2e 2e bd
       0.010517647 0.026517276 0.04701587 -0.042524613
000290 33 27 41 3d 88 05 6b 3d 87 d3 3e 3d 27 62 ea bc
       0.047156524 0.057378322 0.046588447 -0.028611256
0002a0 5c 0d 56 3d 82 ed 43 3c ca cc d2 3c 17 2d 2a bd
       0.052258834 0.011958482 0.025732417 -0.041546907
0002b0 d0 5e 8e bc 1b da ee bc cc 54 23 3d 74 de fb bc
       -0.017379194 -0.029156735 0.03987579 -0.030745722
0002c0 26 ea 93 3c c8 e4 4c 3d 6c c5 71 bc ff 9a 44 3d
       0.018055987 0.05002287 -0.014756542 0.04799938
0002d0 e9 cf e8 3c 3b 8e 65 bd 3b 4c 56 3c f1 34 76 bc
       0.028419452 -0.056043845 0.013079698 -0.015027271
0002e0 c5 fa 99 3c 68 1b 3f bd 8a 08 23 bd 3f 8d 16 bc
       0.018796334 -0.046656996 -0.039803065 -0.009188949
0002f0 28 37 43 bd 3d 26 a5 3c 3d c4 9e bb f7 fc 9e 3c
       -0.047660023 0.020159835 -0.004845171 0.019407732
000300 ea 09 f4 3b ea fb 5c 3c 9e 06 1a bc 87 dd 02 3d
       0.007447471 0.013487795 -0.009400992 0.031949546
000310 90 b8 ad bc a1 3a d9 bc ba 4c a8 bb 28 03 af bc
       -0.02120617 -0.026517214 -0.0051360996 -0.02136381
000320 5d ab f1 bc 2d 2c 22 3d 8e 00 8e bc 04 5b 02 bd
       -0.029500658 0.03959291 -0.017334249 -0.03182508
000330 fa ac 89 3c b5 03 af 3c 4c cd 4e 3c 7e b7 3f 3d
       0.016806114 0.021364072 0.012622189 0.04680585
000340 e2 c6 48 bd 68 92 35 bb bd a8 52 bd d0 c4 e4 3b
       -0.049017794 -0.0027705673 -0.051430453 0.0069814697
000350 dc 35 82 b9 98 b2 a0 3c 60 b9 48 bd cd 8b 44 bd
       -0.0002483566 0.01961641 -0.049004912 -0.047984887
000360 60 ba 14 3d df 80 a4 bb a7 74 db 3c df c1 5b 3d
       0.036310554 -0.0050202454 0.026789023 0.053651687
000370 37 1c 8d 3c 5f 01 3b bd 79 75 af bc ba b2 65 3d
       0.017225368 -0.045655604 -0.02141832 0.05607865
000380 5f b3 d5 3c 16 9a 5b bd 10 d1 26 3d c6 71 55 bd
       0.026086507 -0.053613745 0.04072672 -0.052110456
000390 93 a8 ad b9 92 49 5a bd 80 0e 2b 39 2b 17 b0 bc
       -0.0003312273 -0.05329282 0.00016313232 -0.021495422
0003a0 50 b0 26 3d c6 8c 50 bd b6 67 ae bc aa cd 18 3d
       0.04069549 -0.050915502 -0.021289688 0.03730551
0003b0 9f 86 c7 3c b3 6f 40 3d d4 8b 9a 3b f5 68 4a bd
       0.024356185 0.046981525 0.004716376 -0.0494165
0003c0 fb 93 ae ba b0 3f 95 3c 8e b5 54 3d 0e 72 81 3c
       -0.0013319248 0.018218845 0.051930957 0.015801456
0003d0 bd cf ac ba 27 e4 6c bd e5 7d 2b 3d 43 70 c8 bc
       -0.001318447 -0.05783477 0.04186811 -0.024467593
0003e0 33 1d 0a 3d de 43 0d bd ed 3e 0a bd 73 5e 1d 3d
       0.033719253 -0.03448855 -0.033751417 0.038420152
0003f0 d4 71 59 bc 07 98 ad 3b dc 49 2d 3d dc 5f 6c 3b
       -0.013271768 0.005297664 0.042306766 0.0036067879

rblock2.conv2.bias f4 [32]
000000 c7 04 48 39 cd 8f b1 3c 67 2e 46 3c 1d c8 d4 bb
       0.00019075266 0.021675015 0.012096024 -0.006493582
000010 4d fa 2e bd 5a f1 ef 3c 3e 0d 18 3d 12 f5 15 3d
       -0.042719174 0.02928989 0.037122004 0.03661067
000020 8c 03 90 bc 0c b5 dd bc e3 44 49 bc 3f 9c 4c 3d
       -0.017579816 -0.027063869 -0.01228449 0.049953695
000030 ae 5e 3f bd 0f ce ce bc ad 8d 97 3c 25 82 6f bd
       -0.046721153 -0.02524474 0.018500173 -0.058473725
000040 4c 9c 92 bc 17 bc be 3c fa 00 92 bc 79 3f aa bc
       -0.017896794 0.023283048 -0.017822731 -0.02078222
000050 fe 72 61 bd 4a 61 0b bd 1f e3 86 3c 2f 92 46 3c
       -0.055041306 -0.03402833 0.016465722 0.012119814
000060 d6 01 af 3c ac 71 bd bc 05 92 f2 3c 30 b6 4e 3b
       0.02136318 -0.023125492 0.029610643 0.0031541698
000070 ad 31 17 3d 32 c0 37 3d 87 8c f6 3a cb c6 08 3c
       0.03691261 0.044861026 0.0018810191 0.008348177
